data/hcaptcha-eval/binary-selection_c309fcd49f36b32a610a67a15d0ec372894850ab8c7d572b6707964fe11868cd.safetensors (safetensors, 246540 bytes, 5 tensors)

classification_probs f4 [3]
0	0x3c544875	0.012956728
1	0x3f5f9bab	0.87346905
2	0x3de89998	0.11357421

detection_boxes f4 [1, 4]
0	0x3e85b400	0.26113892
1	0xbfd34400	-1.6505127
2	0x42fbe4ec	125.94711
3	0x42a549fb	82.64449

image f4 [3, 128, 128]
0	0x3f2aaaab	0.6666667
1	0x3f2babac	0.67058825
2	0x3f2cacad	0.6745098
3	0x3f2cacad	0.6745098
4	0x3f2dadae	0.6784314
5	0x3f2babac	0.67058825
6	0x3f2cacad	0.6745098
7	0x3f2aaaab	0.6666667
8	0x3f24a4a5	0.6431373
9	0x3f23a3a4	0.6392157
10	0x3f22a2a3	0.63529414
11	0x3f1f9fa0	0.62352943
12	0x3f1d9d9e	0.6156863
13	0x3f189899	0.59607846
14	0x3f179798	0.5921569
15	0x3f159596	0.58431375
16	0x3f1a9a9b	0.6039216
17	0x3f1d9d9e	0.6156863
18	0x3f1c9c9d	0.6117647
19	0x3f1c9c9d	0.6117647
20	0x3f1b9b9c	0.60784316
21	0x3f179798	0.5921569
22	0x3f129293	0.57254905
23	0x3f0f8f90	0.56078434
24	0x3f088889	0.53333336
25	0x3f058586	0.52156866
26	0x3f028283	0.50980395
27	0x3efefeff	0.49803922
28	0x3ef2f2f3	0.4745098
29	0x3ee8e8e9	0.45490196
30	0x3edededf	0.43529412
31	0x3ed8d8d9	0.42352942
32	0x3ee2e2e3	0.44313726
33	0x3ee6e6e7	0.4509804
34	0x3efcfcfd	0.49411765
35	0x3f109091	0.5647059
36	0x3f29a9aa	0.6627451
37	0x3f39b9ba	0.7254902
38	0x3f3ebebf	0.74509805
39	0x3f3dbdbe	0.7411765
40	0x3f36b6b7	0.7137255
41	0x3f2babac	0.67058825
42	0x3f20a0a1	0.627451
43	0x3f1d9d9e	0.6156863
44	0x3f20a0a1	0.627451
45	0x3f27a7a8	0.654902
46	0x3f32b2b3	0.69803923
47	0x3f35b5b6	0.70980394
48	0x3f2cacad	0.6745098
49	0x3f27a7a8	0.654902
50	0x3f2aaaab	0.6666667
51	0x3f1f9fa0	0.62352943
52	0x3f0b8b8c	0.54509807
53	0x3ee6e6e7	0.4509804
54	0x3eb8b8b9	0.36078432
55	0x3e989899	0.29803923
56	0x3e64e4e5	0.22352941
57	0x3e2cacad	0.16862746
58	0x3e189899	0.14901961
59	0x3e2cacad	0.16862746
60	0x3e48c8c9	0.19607843
61	0x3e54d4d5	0.20784314
62	0x3e74f4f5	0.23921569
63	0x3e808081	0.2509804
64	0x3e70f0f1	0.23529412
65	0x3e5cdcdd	0.21568628
66	0x3e60e0e1	0.21960784
67	0x3e5cdcdd	0.21568628
68	0x3e54d4d5	0.20784314
69	0x3e48c8c9	0.19607843
70	0x3e2cacad	0.16862746
71	0x3e28a8a9	0.16470589
72	0x3e24a4a5	0.16078432
73	0x3e38b8b9	0.18039216
74	0x3e58d8d9	0.21176471
75	0x3e848485	0.25882354
76	0x3eb0b0b1	0.34509805
77	0x3edcdcdd	0.43137255
78	0x3f068687	0.5254902
79	0x3f1a9a9b	0.6039216
80	0x3f27a7a8	0.654902
81	0x3f2dadae	0.6784314
82	0x3f2cacad	0.6745098
83	0x3f2cacad	0.6745098
84	0x3f2dadae	0.6784314
85	0x3f2fafb0	0.6862745
86	0x3f36b6b7	0.7137255
87	0x3f3ababb	0.7294118
88	0x3f43c3c4	0.7647059
89	0x3f46c6c7	0.7764706
90	0x3f49c9ca	0.7882353
91	0x3f47c7c8	0.78039217
92	0x3f44c4c5	0.76862746
93	0x3f3fbfc0	0.7490196
94	0x3f3ebebf	0.74509805
95	0x3f3cbcbd	0.7372549
96	0x3f40c0c1	0.7529412
97	0x3f44c4c5	0.76862746
98	0x3f45c5c6	0.77254903
99	0x3f45c5c6	0.77254903
100	0x3f46c6c7	0.7764706
101	0x3f48c8c9	0.78431374
102	0x3f4acacb	0.7921569
103	0x3f4ececf	0.80784315
104	0x3f51d1d2	0.81960785
105	0x3f52d2d3	0.8235294
106	0x3f54d4d5	0.83137256
107	0x3f59d9da	0.8509804
108	0x3f5ededf	0.87058824
109	0x3f56d6d7	0.8392157
110	0x3f39b9ba	0.7254902
111	0x3f189899	0.59607846
112	0x3ecececf	0.40392157
113	0x3e808081	0.2509804
114	0x3df0f0f1	0.11764706
115	0x3d909091	0.07058824
116	0x3da0a0a1	0.078431375
117	0x3d909091	0.07058824
118	0x3da0a0a1	0.078431375
119	0x3db8b8b9	0.09019608
120	0x3d909091	0.07058824
121	0x3df0f0f1	0.11764706
122	0x3dd0d0d1	0.101960786
123	0x3e38b8b9	0.18039216
124	0x3ea6a6a7	0.3254902
125	0x3f038384	0.5137255
126	0x3f179798	0.5921569
127	0x3f57d7d8	0.84313726
128	0x3ef4f4f5	0.47843137
129	0x3ef4f4f5	0.47843137
130	0x3ef4f4f5	0.47843137
131	0x3ef2f2f3	0.4745098
132	0x3ef2f2f3	0.4745098
133	0x3ef0f0f1	0.47058824
134	0x3ef0f0f1	0.47058824
135	0x3ef0f0f1	0.47058824
136	0x3ee4e4e5	0.44705883
137	0x3ee6e6e7	0.4509804
138	0x3ee4e4e5	0.44705883
139	0x3ee2e2e3	0.44313726
140	0x3edcdcdd	0.43137255
141	0x3ed4d4d5	0.41568628
142	0x3ed0d0d1	0.40784314
143	0x3ed0d0d1	0.40784314
144	0x3ec4c4c5	0.38431373
145	0x3ebebebf	0.37254903
146	0x3eb2b2b3	0.34901962
147	0x3ea6a6a7	0.3254902
148	0x3ea4a4a5	0.32156864
149	0x3ea8a8a9	0.32941177
150	0x3eb0b0b1	0.34509805
151	0x3eb4b4b5	0.3529412
152	0x3ed2d2d3	0.4117647
153	0x3ecececf	0.40392157
154	0x3ecccccd	0.4
155	0x3ecccccd	0.4
156	0x3ed0d0d1	0.40784314
157	0x3ed6d6d7	0.41960785
158	0x3ed8d8d9	0.42352942
159	0x3ee0e0e1	0.4392157
160	0x3eeeeeef	0.46666667
161	0x3efafafb	0.49019608
162	0x3f088889	0.53333336
163	0x3f129293	0.57254905
164	0x3f19999a	0.6
165	0x3f1a9a9b	0.6039216
166	0x3f1b9b9c	0.60784316
167	0x3f189899	0.59607846
168	0x3f018182	0.5058824
169	0x3ef0f0f1	0.47058824
170	0x3ee0e0e1	0.4392157
171	0x3ee0e0e1	0.4392157
172	0x3eeaeaeb	0.45882353
173	0x3efcfcfd	0.49411765
174	0x3f0b8b8c	0.54509807
175	0x3f119192	0.5686275
176	0x3f139394	0.5764706
177	0x3f109091	0.5647059
178	0x3f129293	0.57254905
179	0x3f129293	0.57254905
180	0x3f0b8b8c	0.54509807
181	0x3efcfcfd	0.49411765
182	0x3edadadb	0.42745098
183	0x3eb6b6b7	0.35686275
184	0x3e8c8c8d	0.27450982
185	0x3e54d4d5	0.20784314
186	0x3e38b8b9	0.18039216
187	0x3e40c0c1	0.1882353
188	0x3e54d4d5	0.20784314
189	0x3e5cdcdd	0.21568628
190	0x3e7cfcfd	0.24705882
191	0x3e868687	0.2627451
192	0x3e808081	0.2509804
193	0x3e74f4f5	0.23921569
194	0x3e74f4f5	0.23921569
195	0x3e68e8e9	0.22745098
196	0x3e60e0e1	0.21960784
197	0x3e4ccccd	0.2
198	0x3e38b8b9	0.18039216
199	0x3e2cacad	0.16862746
200	0x3e38b8b9	0.18039216
201	0x3e48c8c9	0.19607843
202	0x3e6ceced	0.23137255
203	0x3e9e9e9f	0.30980393
204	0x3ed2d2d3	0.4117647
205	0x3f008081	0.5019608
206	0x3f139394	0.5764706
207	0x3f20a0a1	0.627451
208	0x3f2cacad	0.6745098
209	0x3f31b1b2	0.69411767
210	0x3f2fafb0	0.6862745
211	0x3f2fafb0	0.6862745
212	0x3f2fafb0	0.6862745
213	0x3f32b2b3	0.69803923
214	0x3f37b7b8	0.7176471
215	0x3f3bbbbc	0.73333335
216	0x3f3fbfc0	0.7490196
217	0x3f43c3c4	0.7647059
218	0x3f45c5c6	0.77254903
219	0x3f46c6c7	0.7764706
220	0x3f43c3c4	0.7647059
221	0x3f41c1c2	0.75686276
222	0x3f3dbdbe	0.7411765
223	0x3f3dbdbe	0.7411765
224	0x3f41c1c2	0.75686276
225	0x3f40c0c1	0.7529412
226	0x3f3ebebf	0.74509805
227	0x3f43c3c4	0.7647059
228	0x3f4acacb	0.7921569
229	0x3f4dcdce	0.8039216
230	0x3f4acacb	0.7921569
231	0x3f44c4c5	0.76862746
232	0x3f48c8c9	0.78431374
233	0x3f55d5d6	0.8352941
234	0x3f5fdfe0	0.8745098
235	0x3f5dddde	0.8666667
236	0x3f4bcbcc	0.79607844
237	0x3f28a8a9	0.65882355
238	0x3ef8f8f9	0.4862745
239	0x3eaaaaab	0.33333334
240	0x3e20a0a1	0.15686275
241	0x3dc0c0c1	0.09411765
242	0x3d70f0f1	0.05882353
243	0x3d989899	0.07450981
244	0x3db8b8b9	0.09019608
245	0x3da0a0a1	0.078431375
246	0x3db0b0b1	0.08627451
247	0x3de8e8e9	0.11372549
248	0x3db8b8b9	0.09019608
249	0x3e44c4c5	0.19215687
250	0x3e848485	0.25882354
251	0x3ec4c4c5	0.38431373
252	0x3f048485	0.5176471
253	0x3f24a4a5	0.6431373
254	0x3f2aaaab	0.6666667
255	0x3f64e4e5	0.89411765

captions i4 [40]
0	0x00000061	97
1	0x00000020	32
2	0x00000070	112
3	0x00000061	97
4	0x00000069	105
5	0x0000006e	110
6	0x00000074	116
7	0x00000069	105
8	0x0000006e	110
9	0x00000067	103
10	0x0000007c	124
11	0x00000061	97
12	0x00000020	32
13	0x00000068	104
14	0x00000075	117
15	0x0000006d	109
16	0x0000006d	109
17	0x00000069	105
18	0x0000006e	110
19	0x00000067	103
20	0x00000062	98
21	0x00000069	105
22	0x00000072	114
23	0x00000064	100
24	0x0000007c	124
25	0x00000061	97
26	0x00000020	32
27	0x00000072	114
28	0x00000061	97
29	0x00000069	105
30	0x0000006e	110
31	0x00000062	98
32	0x0000006f	111
33	0x00000077	119
34	0x00000020	32
35	0x00000073	115
36	0x00000077	119
37	0x00000069	105
38	0x00000072	114
39	0x0000006c	108

detection_labels i4 [13]
0	0x00000061	97
1	0x00000020	32
2	0x00000068	104
3	0x00000075	117
4	0x0000006d	109
5	0x0000006d	109
6	0x00000069	105
7	0x0000006e	110
8	0x00000067	103
9	0x00000062	98
10	0x00000069	105
11	0x00000072	114
12	0x00000064	100
