data/hcaptcha-eval/binary-selection_b42a3565f82fe23783cf9e41d536a224b2f58e45d4030c6a374c64305915962.safetensors (safetensors, 344936 bytes, 6 tensors)

classification_probs f4 [4]
0.0011680963 0.99275994 0.0004446076 0.005627417
00000000: cf1a 993a 8425 7e3f 391a e939 3266 b83b

detection_boxes f4 [3, 4]
0.41134262 1.3822327 126.19028 123.221794 7.093754 2.590374 122.99609 107.81746
-1.3161583 86.35097 124.80582 127.83678
00000000: 809b d23e 00ed b03f 6c61 fc42 8f71 f642
00000010: 0800 e340 b0c8 2540 00fe f542 8aa2 d742
00000020: e077 a8bf b2b3 ac42 949c f942 6eac ff42

detection_scores f4 [3]
0.14339858 0.5860791 0.1543969
00000000: 14d7 123e 4809 163f 391a 1e3e

image f4 [3, 128, 128]
0.47058824 0.34117648 0.38039216 0.5058824 0.5254902 0.53333336 0.5803922 0.6
0.54901963 0.57254905 0.6 0.6392157 0.69411767 0.6666667 0.6431373 0.6666667
0.5803922 0.5529412 0.42745098 0.28627452 0.28627452 0.36078432 0.43529412 0.4745098
0.4392157 0.41960785 0.42745098 0.43529412 0.41960785 0.38431373 0.36078432 0.34117648
0.29803923 0.21568628 0.18039216 0.1882353 0.1882353 0.14901961 0.11764706 0.105882354
0.09411765 0.15294118 0.2509804 0.3764706 0.5254902 0.5882353 0.49411765 0.33333334
0.14901961 0.14117648 0.24705882 0.36862746 0.4392157 0.49803922 0.5411765 0.53333336
0.4627451 0.38039216 0.25882354 0.14509805 0.09803922 0.12941177 0.21960784 0.28235295
0.3882353 0.42745098 0.42745098 0.44705883 0.5019608 0.50980395 0.46666667 0.4509804
0.40784314 0.36862746 0.34901962 0.4 0.47843137 0.53333336 0.5294118 0.5058824
0.41960785 0.37254903 0.25490198 0.16862746 0.13333334 0.0627451 0.09803922 0.24313726
0.34901962 0.4117647 0.48235294 0.5529412 0.6117647 0.5882353 0.57254905 0.6117647
0.63529414 0.6666667 0.7019608 0.7176471 0.73333335 0.7411765 0.72156864 0.6901961
0.6431373 0.64705884 0.627451 0.57254905 0.5137255 0.4392157 0.3529412 0.2784314
0.30588236 0.34901962 0.44313726 0.5254902 0.5529412 0.5176471 0.50980395 0.52156866
0.5529412 0.47058824 0.38039216 0.22352941 0.1882353 0.13333334 0.0 0.047058824
0.34901962 0.2509804 0.2901961 0.4 0.42352942 0.42745098 0.45490196 0.4509804
0.45490196 0.5058824 0.54901963 0.6117647 0.6784314 0.6784314 0.6392157 0.6392157
0.58431375 0.5529412 0.4862745 0.43529412 0.42352942 0.39215687 0.38431373 0.41960785
0.39215687 0.3647059 0.36078432 0.3764706 0.38039216 0.3647059 0.32941177 0.3019608
0.23529412 0.19215687 0.16862746 0.16078432 0.16862746 0.1764706 0.1882353 0.1882353
0.13333334 0.16078432 0.19607843 0.24313726 0.3019608 0.34117648 0.32156864 0.2627451
0.21176471 0.23137255 0.32156864 0.39607844 0.4392157 0.49019608 0.5372549 0.5372549
0.4745098 0.35686275 0.2 0.09803922 0.09803922 0.19607843 0.32941177 0.41568628
0.39607844 0.4745098 0.5058824 0.47843137 0.4627451 0.43529412 0.42745098 0.45882353
0.39607844 0.38431373 0.39215687 0.43137255 0.49803922 0.5254902 0.5254902 0.50980395
0.4745098 0.46666667 0.3882353 0.2901961 0.20392157 0.101960786 0.08235294 0.17254902
0.21960784 0.2784314 0.36078432 0.49019608 0.60784316 0.6156863 0.5647059 0.5647059
0.64705884 0.6509804 0.65882355 0.6627451 0.6901961 0.7137255 0.70980394 0.68235296
0.6431373 0.60784316 0.5529412 0.49411765 0.4509804 0.41568628 0.3529412 0.2901961
0.2627451 0.32156864 0.40392157 0.4627451 0.4509804 0.41568628 0.43137255 0.47058824
0.47058824 0.4117647 0.34117648 0.21960784 0.19215687 0.15686275 0.03137255 0.07058824
00000000: f1f0 f03e afae ae3e c3c2 c23e 8281 013f
00000010: 8786 063f 8988 083f 9594 143f 9a99 193f
00000020: 8d8c 0c3f 9392 123f 9a99 193f a4a3 233f
00000030: b2b1 313f abaa 2a3f a5a4 243f abaa 2a3f
00000040: 9594 143f 8e8d 0d3f dbda da3e 9392 923e
00000050: 9392 923e b9b8 b83e dfde de3e f3f2 f23e
00000060: e1e0 e03e d7d6 d63e dbda da3e dfde de3e
00000070: d7d6 d63e c5c4 c43e b9b8 b83e afae ae3e
00000080: 9998 983e dddc 5c3e b9b8 383e c1c0 403e
00000090: c1c0 403e 9998 183e f1f0 f03d d9d8 d83d
000000a0: c1c0 c03d 9d9c 1c3e 8180 803e c1c0 c03e
000000b0: 8786 063f 9796 163f fdfc fc3e abaa aa3e
000000c0: 9998 183e 9190 103e fdfc 7c3e bdbc bc3e
000000d0: e1e0 e03e fffe fe3e 8b8a 0a3f 8988 083f
000000e0: edec ec3e c3c2 c23e 8584 843e 9594 143e
000000f0: c9c8 c83d 8584 043e e1e0 603e 9190 903e
00000100: c7c6 c63e dbda da3e dbda da3e e5e4 e43e
00000110: 8180 003f 8382 023f efee ee3e e7e6 e63e
00000120: d1d0 d03e bdbc bc3e b3b2 b23e cdcc cc3e
00000130: f5f4 f43e 8988 083f 8887 073f 8281 013f
00000140: d7d6 d63e bfbe be3e 8382 823e adac 2c3e
00000150: 8988 083e 8180 803d c9c8 c83d f9f8 783e
00000160: b3b2 b23e d3d2 d23e f7f6 f63e 8e8d 0d3f
00000170: 9d9c 1c3f 9796 163f 9392 123f 9d9c 1c3f
00000180: a3a2 223f abaa 2a3f b4b3 333f b8b7 373f
00000190: bcbb 3b3f bebd 3d3f b9b8 383f b1b0 303f
000001a0: a5a4 243f a6a5 253f a1a0 203f 9392 123f
000001b0: 8483 033f e1e0 e03e b5b4 b43e 8f8e 8e3e
000001c0: 9d9c 9c3e b3b2 b23e e3e2 e23e 8786 063f
000001d0: 8e8d 0d3f 8584 043f 8382 023f 8685 053f
000001e0: 8e8d 0d3f f1f0 f03e c3c2 c23e e5e4 643e
000001f0: c1c0 403e 8988 083e 0000 0000 c1c0 403d
00000200: b3b2 b23e 8180 803e 9594 943e cdcc cc3e
00000210: d9d8 d83e dbda da3e e9e8 e83e e7e6 e63e
00000220: e9e8 e83e 8281 013f 8d8c 0c3f 9d9c 1c3f
00000230: aead 2d3f aead 2d3f a4a3 233f a4a3 233f
00000240: 9695 153f 8e8d 0d3f f9f8 f83e dfde de3e
00000250: d9d8 d83e c9c8 c83e c5c4 c43e d7d6 d63e
00000260: c9c8 c83e bbba ba3e b9b8 b83e c1c0 c03e
00000270: c3c2 c23e bbba ba3e a9a8 a83e 9b9a 9a3e
00000280: f1f0 703e c5c4 443e adac 2c3e a5a4 243e
00000290: adac 2c3e b5b4 343e c1c0 403e c1c0 403e
000002a0: 8988 083e a5a4 243e c9c8 483e f9f8 783e
000002b0: 9b9a 9a3e afae ae3e a5a4 a43e 8786 863e
000002c0: d9d8 583e edec 6c3e a5a4 a43e cbca ca3e
000002d0: e1e0 e03e fbfa fa3e 8a89 093f 8a89 093f
000002e0: f3f2 f23e b7b6 b63e cdcc 4c3e c9c8 c83d
000002f0: c9c8 c83d c9c8 483e a9a8 a83e d5d4 d43e
00000300: cbca ca3e f3f2 f23e 8281 013f f5f4 f43e
00000310: edec ec3e dfde de3e dbda da3e ebea ea3e
00000320: cbca ca3e c5c4 c43e c9c8 c83e dddc dc3e
00000330: fffe fe3e 8786 063f 8786 063f 8382 023f
00000340: f3f2 f23e efee ee3e c7c6 c63e 9594 943e
00000350: d1d0 503e d1d0 d03d a9a8 a83d b1b0 303e
00000360: e1e0 603e 8f8e 8e3e b9b8 b83e fbfa fa3e
00000370: 9c9b 1b3f 9e9d 1d3f 9190 103f 9190 103f
00000380: a6a5 253f a7a6 263f a9a8 283f aaa9 293f
00000390: b1b0 303f b7b6 363f b6b5 353f afae 2e3f
000003a0: a5a4 243f 9c9b 1b3f 8e8d 0d3f fdfc fc3e
000003b0: e7e6 e63e d5d4 d43e b5b4 b43e 9594 943e
000003c0: 8786 863e a5a4 a43e cfce ce3e edec ec3e
000003d0: e7e6 e63e d5d4 d43e dddc dc3e f1f0 f03e
000003e0: f1f0 f03e d3d2 d23e afae ae3e e1e0 603e
000003f0: c5c4 443e a1a0 203e 8180 003d 9190 903d

captions i4 [37]
116 104 101 32 103 114 97 115
115 124 97 32 114 97 98 98
105 116 124 97 32 102 114 105
115 98 101 101 124 112 97 105
110 116 105 110 103
00000000: 7400 0000 6800 0000 6500 0000 2000 0000
00000010: 6700 0000 7200 0000 6100 0000 7300 0000
00000020: 7300 0000 7c00 0000 6100 0000 2000 0000
00000030: 7200 0000 6100 0000 6200 0000 6200 0000
00000040: 6900 0000 7400 0000 7c00 0000 6100 0000
00000050: 2000 0000 6600 0000 7200 0000 6900 0000
00000060: 7300 0000 6200 0000 6500 0000 6500 0000
00000070: 7c00 0000 7000 0000 6100 0000 6900 0000
00000080: 6e00 0000 7400 0000 6900 0000 6e00 0000
00000090: 6700 0000

detection_labels i4 [28]
116 104 101 32 103 114 97 115
115 124 97 32 114 97 98 98
105 116 124 116 104 101 32 103
114 97 115 115
00000000: 7400 0000 6800 0000 6500 0000 2000 0000
00000010: 6700 0000 7200 0000 6100 0000 7300 0000
00000020: 7300 0000 7c00 0000 6100 0000 2000 0000
00000030: 7200 0000 6100 0000 6200 0000 6200 0000
00000040: 6900 0000 7400 0000 7c00 0000 7400 0000
00000050: 6800 0000 6500 0000 2000 0000 6700 0000
00000060: 7200 0000 6100 0000 7300 0000 7300 0000
