data/hcaptcha-eval/binary-selection_52415cdae6ab1f46fbeb1c3f36e5408a4867492c5c4cab9abb00aa7d2250c752.safetensors (safetensors, 394096 bytes, 6 tensors)

classification_probs f4 [3]
0.5096138 0.25435957 0.23602661
00000000: 0d76 023f 6b3b 823e f6b0 713e

detection_boxes f4 [4, 4]
2.161274 1.6509743 128.59985 126.94978 1.7650871 -0.98260117 128.62256 75.978485
2.3538017 2.919941 129.55278 121.87102 1.9870644 68.92865 127.80434 128.56087
00000000: 5052 0a40 2053 d33f 9099 0043 4ae6 fd42
00000010: 60ee e13f c08b 7bbf 609f 0043 fcf4 9742
00000020: b0a4 1640 50e0 3a40 838d 0143 f6bd f342
00000030: 2058 fe3f 78db 8942 d29b ff42 958f 0043

detection_scores f4 [4]
0.13002864 0.11562805 0.17408046 0.12444305
00000000: 3a26 053e 66ce ec3d 2642 323e ffdb fe3d

image f4 [3, 128, 128]
0.95686275 0.95686275 0.95686275 0.95686275 0.9490196 0.94509804 0.9372549 0.9372549
0.9372549 0.9490196 0.9490196 0.9411765 0.9411765 0.9490196 0.9490196 0.92941177
0.92156863 0.9098039 0.92941177 0.9411765 0.92941177 0.9411765 0.95686275 0.9254902
0.9137255 0.92156863 0.90588236 0.8627451 0.84313726 0.83137256 0.7764706 0.69411767
0.64705884 0.6 0.57254905 0.5882353 0.59607846 0.5372549 0.4627451 0.40784314
0.3647059 0.39215687 0.37254903 0.38039216 0.4509804 0.44313726 0.39215687 0.4117647
0.39215687 0.41960785 0.44705883 0.4392157 0.41960785 0.4 0.39215687 0.38431373
0.39607844 0.40392157 0.39215687 0.37254903 0.39607844 0.42352942 0.4117647 0.3764706
0.38431373 0.36862746 0.3764706 0.4117647 0.43137255 0.42352942 0.4117647 0.4117647
0.42352942 0.38431373 0.37254903 0.35686275 0.30980393 0.25490198 0.2784314 0.3529412
0.34901962 0.32156864 0.31764707 0.34117648 0.34901962 0.32941177 0.34117648 0.37254903
0.4392157 0.35686275 0.33333334 0.34901962 0.33333334 0.3529412 0.43529412 0.49019608
0.5058824 0.54901963 0.59607846 0.5764706 0.48235294 0.36862746 0.27450982 0.22352941
0.2 0.28235295 0.3372549 0.27058825 0.16078432 0.105882354 0.1254902 0.16862746
0.20784314 0.2 0.21960784 0.2509804 0.3019608 0.27450982 0.15686275 0.03529412
0.011764706 0.007843138 0.0 0.039215688 0.08627451 0.05490196 0.15686275 0.77254903
0.9019608 0.89411765 0.8784314 0.85882354 0.8352941 0.8235294 0.83137256 0.8392157
0.77254903 0.76862746 0.7372549 0.6862745 0.6509804 0.64705884 0.64705884 0.6313726
0.60784316 0.57254905 0.5803922 0.58431375 0.5764706 0.6117647 0.654902 0.6431373
0.69411767 0.7058824 0.69411767 0.65882355 0.63529414 0.6117647 0.5529412 0.4745098
0.4392157 0.41960785 0.4392157 0.48235294 0.50980395 0.47843137 0.41960785 0.3764706
0.34509805 0.3137255 0.28235295 0.37254903 0.5176471 0.5058824 0.43529412 0.44313726
0.40392157 0.41568628 0.43137255 0.42352942 0.41568628 0.40392157 0.40392157 0.39215687
0.40784314 0.4 0.37254903 0.3372549 0.36078432 0.4 0.4117647 0.39215687
0.3647059 0.35686275 0.37254903 0.4117647 0.44313726 0.4392157 0.43137255 0.42745098
0.41960785 0.41568628 0.4117647 0.38039216 0.30980393 0.24705882 0.26666668 0.32156864
0.31764707 0.28235295 0.27058825 0.28627452 0.30980393 0.3372549 0.36078432 0.3882353
0.4627451 0.36862746 0.34901962 0.40392157 0.4392157 0.47058824 0.52156866 0.5372549
0.5803922 0.5803922 0.54509807 0.44705883 0.32156864 0.21960784 0.18039216 0.16862746
0.23529412 0.29803923 0.3254902 0.23529412 0.12156863 0.0627451 0.08627451 0.13333334
0.17254902 0.17254902 0.1764706 0.17254902 0.17254902 0.14117648 0.07058824 0.0
0.0 0.03529412 0.05490196 0.09803922 0.14509805 0.13333334 0.1882353 0.7137255
00000000: f5f4 743f f5f4 743f f5f4 743f f5f4 743f
00000010: f3f2 723f f2f1 713f f0ef 6f3f f0ef 6f3f
00000020: f0ef 6f3f f3f2 723f f3f2 723f f1f0 703f
00000030: f1f0 703f f3f2 723f f3f2 723f eeed 6d3f
00000040: eceb 6b3f e9e8 683f eeed 6d3f f1f0 703f
00000050: eeed 6d3f f1f0 703f f5f4 743f edec 6c3f
00000060: eae9 693f eceb 6b3f e8e7 673f dddc 5c3f
00000070: d8d7 573f d5d4 543f c7c6 463f b2b1 313f
00000080: a6a5 253f 9a99 193f 9392 123f 9796 163f
00000090: 9998 183f 8a89 093f edec ec3e d1d0 d03e
000000a0: bbba ba3e c9c8 c83e bfbe be3e c3c2 c23e
000000b0: e7e6 e63e e3e2 e23e c9c8 c83e d3d2 d23e
000000c0: c9c8 c83e d7d6 d63e e5e4 e43e e1e0 e03e
000000d0: d7d6 d63e cdcc cc3e c9c8 c83e c5c4 c43e
000000e0: cbca ca3e cfce ce3e c9c8 c83e bfbe be3e
000000f0: cbca ca3e d9d8 d83e d3d2 d23e c1c0 c03e
00000100: c5c4 c43e bdbc bc3e c1c0 c03e d3d2 d23e
00000110: dddc dc3e d9d8 d83e d3d2 d23e d3d2 d23e
00000120: d9d8 d83e c5c4 c43e bfbe be3e b7b6 b63e
00000130: 9f9e 9e3e 8382 823e 8f8e 8e3e b5b4 b43e
00000140: b3b2 b23e a5a4 a43e a3a2 a23e afae ae3e
00000150: b3b2 b23e a9a8 a83e afae ae3e bfbe be3e
00000160: e1e0 e03e b7b6 b63e abaa aa3e b3b2 b23e
00000170: abaa aa3e b5b4 b43e dfde de3e fbfa fa3e
00000180: 8281 013f 8d8c 0c3f 9998 183f 9493 133f
00000190: f7f6 f63e bdbc bc3e 8d8c 8c3e e5e4 643e
000001a0: cdcc 4c3e 9190 903e adac ac3e 8b8a 8a3e
000001b0: a5a4 243e d9d8 d83d 8180 003e adac 2c3e
000001c0: d5d4 543e cdcc 4c3e e1e0 603e 8180 803e
000001d0: 9b9a 9a3e 8d8c 8c3e a1a0 203e 9190 103d
000001e0: c1c0 403c 8180 003c 0000 0000 a1a0 203d
000001f0: b1b0 b03d e1e0 603d a1a0 203e c6c5 453f
00000200: e7e6 663f e5e4 643f e1e0 603f dcdb 5b3f
00000210: d6d5 553f d3d2 523f d5d4 543f d7d6 563f
00000220: c6c5 453f c5c4 443f bdbc 3c3f b0af 2f3f
00000230: a7a6 263f a6a5 253f a6a5 253f a2a1 213f
00000240: 9c9b 1b3f 9392 123f 9594 143f 9695 153f
00000250: 9493 133f 9d9c 1c3f a8a7 273f a5a4 243f
00000260: b2b1 313f b5b4 343f b2b1 313f a9a8 283f
00000270: a3a2 223f 9d9c 1c3f 8e8d 0d3f f3f2 f23e
00000280: e1e0 e03e d7d6 d63e e1e0 e03e f7f6 f63e
00000290: 8382 023f f5f4 f43e d7d6 d63e c1c0 c03e
000002a0: b1b0 b03e a1a0 a03e 9190 903e bfbe be3e
000002b0: 8584 043f 8281 013f dfde de3e e3e2 e23e
000002c0: cfce ce3e d5d4 d43e dddc dc3e d9d8 d83e
000002d0: d5d4 d43e cfce ce3e cfce ce3e c9c8 c83e
000002e0: d1d0 d03e cdcc cc3e bfbe be3e adac ac3e
000002f0: b9b8 b83e cdcc cc3e d3d2 d23e c9c8 c83e
00000300: bbba ba3e b7b6 b63e bfbe be3e d3d2 d23e
00000310: e3e2 e23e e1e0 e03e dddc dc3e dbda da3e
00000320: d7d6 d63e d5d4 d43e d3d2 d23e c3c2 c23e
00000330: 9f9e 9e3e fdfc 7c3e 8988 883e a5a4 a43e
00000340: a3a2 a23e 9190 903e 8b8a 8a3e 9392 923e
00000350: 9f9e 9e3e adac ac3e b9b8 b83e c7c6 c63e
00000360: edec ec3e bdbc bc3e b3b2 b23e cfce ce3e
00000370: e1e0 e03e f1f0 f03e 8685 053f 8a89 093f
00000380: 9594 143f 9594 143f 8c8b 0b3f e5e4 e43e
00000390: a5a4 a43e e1e0 603e b9b8 383e adac 2c3e
000003a0: f1f0 703e 9998 983e a7a6 a63e f1f0 703e
000003b0: f9f8 f83d 8180 803d b1b0 b03d 8988 083e
000003c0: b1b0 303e b1b0 303e b5b4 343e b1b0 303e
000003d0: b1b0 303e 9190 103e 9190 903d 0000 0000
000003e0: 0000 0000 9190 103d e1e0 603d c9c8 c83d
000003f0: 9594 143e 8988 083e c1c0 403e b7b6 363f

captions i4 [27]
116 104 101 32 103 114 97 115
115 124 112 97 105 110 116 105
110 103 124 97 32 102 111 114
101 115 116
00000000: 7400 0000 6800 0000 6500 0000 2000 0000
00000010: 6700 0000 7200 0000 6100 0000 7300 0000
00000020: 7300 0000 7c00 0000 7000 0000 6100 0000
00000030: 6900 0000 6e00 0000 7400 0000 6900 0000
00000040: 6e00 0000 6700 0000 7c00 0000 6100 0000
00000050: 2000 0000 6600 0000 6f00 0000 7200 0000
00000060: 6500 0000 7300 0000 7400 0000

detection_labels i4 [36]
112 97 105 110 116 105 110 103
124 97 32 102 111 114 101 115
116 124 97 32 102 111 114 101
115 116 124 116 104 101 32 103
114 97 115 115
00000000: 7000 0000 6100 0000 6900 0000 6e00 0000
00000010: 7400 0000 6900 0000 6e00 0000 6700 0000
00000020: 7c00 0000 6100 0000 2000 0000 6600 0000
00000030: 6f00 0000 7200 0000 6500 0000 7300 0000
00000040: 7400 0000 7c00 0000 6100 0000 2000 0000
00000050: 6600 0000 6f00 0000 7200 0000 6500 0000
00000060: 7300 0000 7400 0000 7c00 0000 7400 0000
00000070: 6800 0000 6500 0000 2000 0000 6700 0000
00000080: 7200 0000 6100 0000 7300 0000 7300 0000
