data/hcaptcha-eval/binary-selection_b397483bf4457bf44e43e622b88044cefff1377a080ecf1e91d917046e07f5a8.safetensors (safetensors, 295800 bytes, 6 tensors)

classification_probs f4 [2]
0	0x39fb7b48	0.00047966302
1	0x3f7fe090	0.9995203

detection_boxes f4 [2, 4]
0	0x41ac754a	21.55727
1	0x3caec800	0.021335602
2	0x42fc708c	126.21982
3	0x42fe98b0	127.29822
4	0x4286e7a8	67.45245
5	0x429ada5b	77.426476
6	0x42d4050c	106.00986
7	0x42c68649	99.262276

detection_scores f4 [2]
0	0x3f078710	0.52940464
1	0x3f0ab141	0.5417672

image f4 [3, 128, 128]
0	0x3f800000	1.0
1	0x3f800000	1.0
2	0x3f800000	1.0
3	0x3f800000	1.0
4	0x3f800000	1.0
5	0x3f800000	1.0
6	0x3f800000	1.0
7	0x3f800000	1.0
8	0x3f800000	1.0
9	0x3f800000	1.0
10	0x3f800000	1.0
11	0x3f800000	1.0
12	0x3f800000	1.0
13	0x3f800000	1.0
14	0x3f800000	1.0
15	0x3f800000	1.0
16	0x3f800000	1.0
17	0x3f800000	1.0
18	0x3f800000	1.0
19	0x3f800000	1.0
20	0x3f800000	1.0
21	0x3f800000	1.0
22	0x3f800000	1.0
23	0x3f800000	1.0
24	0x3f800000	1.0
25	0x3f800000	1.0
26	0x3f800000	1.0
27	0x3f800000	1.0
28	0x3f800000	1.0
29	0x3f800000	1.0
30	0x3f800000	1.0
31	0x3f800000	1.0
32	0x3f800000	1.0
33	0x3f800000	1.0
34	0x3f800000	1.0
35	0x3f800000	1.0
36	0x3f800000	1.0
37	0x3f7dfdfe	0.99215686
38	0x3f79f9fa	0.9764706
39	0x3f73f3f4	0.9529412
40	0x3f70f0f1	0.9411765
41	0x3f63e3e4	0.8901961
42	0x3f58d8d9	0.84705883
43	0x3f52d2d3	0.8235294
44	0x3f53d3d4	0.827451
45	0x3f53d3d4	0.827451
46	0x3f5cdcdd	0.8627451
47	0x3f63e3e4	0.8901961
48	0x3f6feff0	0.9372549
49	0x3f74f4f5	0.95686275
50	0x3f75f5f6	0.9607843
51	0x3f73f3f4	0.9529412
52	0x3f75f5f6	0.9607843
53	0x3f78f8f9	0.972549
54	0x3f74f4f5	0.95686275
55	0x3f6dedee	0.92941177
56	0x3f73f3f4	0.9529412
57	0x3f71f1f2	0.94509804
58	0x3f71f1f2	0.94509804
59	0x3f71f1f2	0.94509804
60	0x3f6ceced	0.9254902
61	0x3f59d9da	0.8509804
62	0x3f40c0c1	0.7529412
63	0x3f2aaaab	0.6666667
64	0x3f19999a	0.6
65	0x3f0f8f90	0.56078434
66	0x3f09898a	0.5372549
67	0x3f09898a	0.5372549
68	0x3f0f8f90	0.56078434
69	0x3f119192	0.5686275
70	0x3f0f8f90	0.56078434
71	0x3f0a8a8b	0.5411765
72	0x3f0b8b8c	0.54509807
73	0x3f088889	0.53333336
74	0x3f068687	0.5254902
75	0x3f038384	0.5137255
76	0x3efcfcfd	0.49411765
77	0x3ee8e8e9	0.45490196
78	0x3ecacacb	0.39607844
79	0x3ebababb	0.3647059
80	0x3ea8a8a9	0.32941177
81	0x3e989899	0.29803923
82	0x3e848485	0.25882354
83	0x3e6ceced	0.23137255
84	0x3e808081	0.2509804
85	0x3eaeaeaf	0.34117648
86	0x3eb8b8b9	0.36078432
87	0x3e989899	0.29803923
88	0x3e2cacad	0.16862746
89	0x3dc8c8c9	0.09803922
90	0x3d50d0d1	0.050980393
91	0x3d888889	0.06666667
92	0x3da0a0a1	0.078431375
93	0x3d888889	0.06666667
94	0x3d60e0e1	0.05490196
95	0x3d60e0e1	0.05490196
96	0x3da8a8a9	0.08235294
97	0x3d808081	0.0627451
98	0x3da8a8a9	0.08235294
99	0x3e189899	0.14901961
100	0x3e70f0f1	0.23529412
101	0x3eacacad	0.3372549
102	0x3ef2f2f3	0.4745098
103	0x3f189899	0.59607846
104	0x3f37b7b8	0.7176471
105	0x3f4acacb	0.7921569
106	0x3f5cdcdd	0.8627451
107	0x3f63e3e4	0.8901961
108	0x3f64e4e5	0.89411765
109	0x3f65e5e6	0.8980392
110	0x3f5fdfe0	0.8745098
111	0x3f59d9da	0.8509804
112	0x3f47c7c8	0.78039217
113	0x3f44c4c5	0.76862746
114	0x3f38b8b9	0.72156864
115	0x3f27a7a8	0.654902
116	0x3f22a2a3	0.63529414
117	0x3f1a9a9b	0.6039216
118	0x3f068687	0.5254902
119	0x3edadadb	0.42745098
120	0x3e8a8a8b	0.27058825
121	0x3e008081	0.1254902
122	0x3db8b8b9	0.09019608
123	0x3c808081	0.015686275
124	0x3d008081	0.03137255
125	0x3e8e8e8f	0.2784314
126	0x3f800000	1.0
127	0x3f75f5f6	0.9607843
128	0x3f800000	1.0
129	0x3f800000	1.0
130	0x3f800000	1.0
131	0x3f800000	1.0
132	0x3f7efeff	0.99607843
133	0x3f7bfbfc	0.9843137
134	0x3f7bfbfc	0.9843137
135	0x3f79f9fa	0.9764706
136	0x3f77f7f8	0.96862745
137	0x3f74f4f5	0.95686275
138	0x3f72f2f3	0.9490196
139	0x3f6dedee	0.92941177
140	0x3f69e9ea	0.9137255
141	0x3f64e4e5	0.89411765
142	0x3f62e2e3	0.8862745
143	0x3f60e0e1	0.8784314
144	0x3f51d1d2	0.81960785
145	0x3f4fcfd0	0.8117647
146	0x3f4ccccd	0.8
147	0x3f48c8c9	0.78431374
148	0x3f44c4c5	0.76862746
149	0x3f40c0c1	0.7529412
150	0x3f3dbdbe	0.7411765
151	0x3f3cbcbd	0.7372549
152	0x3f30b0b1	0.6901961
153	0x3f2eaeaf	0.68235296
154	0x3f2babac	0.67058825
155	0x3f27a7a8	0.654902
156	0x3f23a3a4	0.6392157
157	0x3f20a0a1	0.627451
158	0x3f1d9d9e	0.6156863
159	0x3f1b9b9c	0.60784316
160	0x3f0b8b8c	0.54509807
161	0x3f0a8a8b	0.5411765
162	0x3f0b8b8c	0.54509807
163	0x3f068687	0.5254902
164	0x3f018182	0.5058824
165	0x3ef4f4f5	0.47843137
166	0x3efafafb	0.49019608
167	0x3f008081	0.5019608
168	0x3eececed	0.4627451
169	0x3edcdcdd	0.43137255
170	0x3ec8c8c9	0.39215687
171	0x3ec0c0c1	0.3764706
172	0x3ec8c8c9	0.39215687
173	0x3eeaeaeb	0.45882353
174	0x3f149495	0.5803922
175	0x3f2fafb0	0.6862745
176	0x3f50d0d1	0.8156863
177	0x3f5ededf	0.87058824
178	0x3f6ceced	0.9254902
179	0x3f6dedee	0.92941177
180	0x3f6ceced	0.9254902
181	0x3f6dedee	0.92941177
182	0x3f6dedee	0.92941177
183	0x3f69e9ea	0.9137255
184	0x3f6dedee	0.92941177
185	0x3f6ceced	0.9254902
186	0x3f6dedee	0.92941177
187	0x3f71f1f2	0.94509804
188	0x3f72f2f3	0.9490196
189	0x3f68e8e9	0.9098039
190	0x3f56d6d7	0.8392157
191	0x3f47c7c8	0.78039217
192	0x3f31b1b2	0.69411767
193	0x3f20a0a1	0.627451
194	0x3f119192	0.5686275
195	0x3f0a8a8b	0.5411765
196	0x3f0e8e8f	0.5568628
197	0x3f129293	0.57254905
198	0x3f119192	0.5686275
199	0x3f0d8d8e	0.5529412
200	0x3f0a8a8b	0.5411765
201	0x3f078788	0.5294118
202	0x3f048485	0.5176471
203	0x3f018182	0.5058824
204	0x3ef8f8f9	0.4862745
205	0x3ee6e6e7	0.4509804
206	0x3ec8c8c9	0.39215687
207	0x3ebababb	0.3647059
208	0x3ea6a6a7	0.3254902
209	0x3e989899	0.29803923
210	0x3e848485	0.25882354
211	0x3e70f0f1	0.23529412
212	0x3e7cfcfd	0.24705882
213	0x3eaaaaab	0.33333334
214	0x3eb4b4b5	0.3529412
215	0x3e949495	0.2901961
216	0x3e34b4b5	0.1764706
217	0x3dd8d8d9	0.105882354
218	0x3d40c0c1	0.047058824
219	0x3d40c0c1	0.047058824
220	0x3d60e0e1	0.05490196
221	0x3d60e0e1	0.05490196
222	0x3d888889	0.06666667
223	0x3db0b0b1	0.08627451
224	0x3da8a8a9	0.08235294
225	0x3e20a0a1	0.15686275
226	0x3e8e8e8f	0.2784314
227	0x3ed6d6d7	0.41960785
228	0x3f0a8a8b	0.5411765
229	0x3f27a7a8	0.654902
230	0x3f43c3c4	0.7647059
231	0x3f5adadb	0.85490197
232	0x3f61e1e2	0.88235295
233	0x3f6dedee	0.92941177
234	0x3f76f6f7	0.9647059
235	0x3f78f8f9	0.972549
236	0x3f77f7f8	0.96862745
237	0x3f77f7f8	0.96862745
238	0x3f74f4f5	0.95686275
239	0x3f6dedee	0.92941177
240	0x3f6aeaeb	0.91764706
241	0x3f6bebec	0.92156863
242	0x3f69e9ea	0.9137255
243	0x3f64e4e5	0.89411765
244	0x3f67e7e8	0.90588236
245	0x3f60e0e1	0.8784314
246	0x3f49c9ca	0.7882353
247	0x3f2cacad	0.6745098
248	0x3eb4b4b5	0.3529412
249	0x3e149495	0.14509805
250	0x3d888889	0.06666667
251	0x3cc0c0c1	0.023529412
252	0x3d40c0c1	0.047058824
253	0x3e68e8e9	0.22745098
254	0x3f800000	1.0
255	0x3f7afafb	0.98039216

captions i4 [38]
0	0x00000061	97
1	0x00000020	32
2	0x00000062	98
3	0x0000006c	108
4	0x00000061	97
5	0x00000063	99
6	0x0000006b	107
7	0x00000020	32
8	0x00000062	98
9	0x0000006f	111
10	0x00000077	119
11	0x00000020	32
12	0x00000074	116
13	0x00000069	105
14	0x00000065	101
15	0x0000007c	124
16	0x00000061	97
17	0x00000020	32
18	0x00000077	119
19	0x00000068	104
20	0x00000069	105
21	0x00000074	116
22	0x00000065	101
23	0x00000020	32
24	0x00000073	115
25	0x00000074	116
26	0x00000075	117
27	0x00000066	102
28	0x00000066	102
29	0x00000065	101
30	0x00000064	100
31	0x00000020	32
32	0x00000072	114
33	0x00000061	97
34	0x00000062	98
35	0x00000062	98
36	0x00000069	105
37	0x00000074	116

detection_labels i4 [38]
0	0x00000061	97
1	0x00000020	32
2	0x00000077	119
3	0x00000068	104
4	0x00000069	105
5	0x00000074	116
6	0x00000065	101
7	0x00000020	32
8	0x00000073	115
9	0x00000074	116
10	0x00000075	117
11	0x00000066	102
12	0x00000066	102
13	0x00000065	101
14	0x00000064	100
15	0x00000020	32
16	0x00000072	114
17	0x00000061	97
18	0x00000062	98
19	0x00000062	98
20	0x00000069	105
21	0x00000074	116
22	0x0000007c	124
23	0x00000061	97
24	0x00000020	32
25	0x00000062	98
26	0x0000006c	108
27	0x00000061	97
28	0x00000063	99
29	0x0000006b	107
30	0x00000020	32
31	0x00000062	98
32	0x0000006f	111
33	0x00000077	119
34	0x00000020	32
35	0x00000074	116
36	0x00000069	105
37	0x00000065	101
