data/hcaptcha-eval/binary-selection_0ece5492ff5168e31ec6576feb7f09e5f8c2de7a11e1296f4db99b757b147715.safetensors (safetensors, 344956 bytes, 6 tensors)

classification_probs f4 [2]
000000 6f 7e 12 3b 82 6d 7f 3f
       0.0022353192 0.9977647

detection_boxes f4 [3, 4]
000000 10 28 d1 40 60 37 82 3f 77 8d bf 42 62 ee e7 42
       6.5361404 1.0173149 95.7763 115.96559
000010 c4 8c a7 42 fe 29 a7 42 ac 20 fe 42 d0 1b fc 42
       83.77493 83.582016 127.06381 126.05432
000020 c0 6d 0e bf 9e fd a4 42 6a b1 fd 42 d2 a8 00 43
       -0.55636215 82.495346 126.84651 128.65945

detection_scores f4 [3]
000000 e0 b5 02 3f e2 22 e4 3d e9 ae 37 3e
       0.5105877 0.11139466 0.17937817

image f4 [3, 128, 128]
000000 f3 f2 72 3f f2 f1 71 3f f1 f0 70 3f f3 f2 72 3f
       0.9490196 0.94509804 0.9411765 0.9490196
000010 f5 f4 74 3f f6 f5 75 3f f8 f7 77 3f f7 f6 76 3f
       0.95686275 0.9607843 0.96862745 0.9647059
000020 fc fb 7b 3f ff fe 7e 3f ff fe 7e 3f fe fd 7d 3f
       0.9843137 0.99607843 0.99607843 0.99215686
000030 f8 f7 77 3f ef ee 6e 3f e9 e8 68 3f e8 e7 67 3f
       0.96862745 0.93333334 0.9098039 0.90588236
000040 dc db 5b 3f d4 d3 53 3f cd cc 4c 3f c5 c4 44 3f
       0.85882354 0.827451 0.8 0.76862746
000050 b9 b8 38 3f a6 a5 25 3f 98 97 17 3f 93 92 12 3f
       0.72156864 0.64705884 0.5921569 0.57254905
000060 87 86 06 3f fb fa fa 3e f7 f6 f6 3e eb ea ea 3e
       0.5254902 0.49019608 0.48235294 0.45882353
000070 d5 d4 d4 3e c5 c4 c4 3e b5 b4 b4 3e 8f 8e 8e 3e
       0.41568628 0.38431373 0.3529412 0.2784314
000080 dd dc 5c 3e c9 c8 48 3e 99 98 18 3e d9 d8 d8 3d
       0.21568628 0.19607843 0.14901961 0.105882354
000090 a9 a8 28 3e a7 a6 a6 3e 83 82 02 3f 9b 9a 1a 3f
       0.16470589 0.3254902 0.50980395 0.6039216
0000a0 fd fc fc 3e dd dc dc 3e b3 b2 b2 3e a1 a0 a0 3e
       0.49411765 0.43137255 0.34901962 0.3137255
0000b0 a1 a0 a0 3e f5 f4 74 3e a1 a0 20 3e 8d 8c 0c 3e
       0.3137255 0.23921569 0.15686275 0.13725491
0000c0 81 80 00 3e 9d 9c 1c 3e 91 90 10 3e d9 d8 d8 3d
       0.1254902 0.15294118 0.14117648 0.105882354
0000d0 d1 d0 d0 3d f1 f0 f0 3d c9 c8 c8 3d d1 d0 50 3d
       0.101960786 0.11764706 0.09803922 0.050980393
0000e0 c1 c0 40 3d a1 a0 a0 3d 8d 8c 0c 3e c1 c0 40 3e
       0.047058824 0.078431375 0.13725491 0.1882353
0000f0 e1 e0 60 3e 85 84 84 3e b1 b0 b0 3e e1 e0 e0 3e
       0.21960784 0.25882354 0.34509805 0.4392157
000100 9e 9d 1d 3f a9 a8 28 3f b4 b3 33 3f bb ba 3a 3f
       0.6156863 0.65882355 0.7019608 0.7294118
000110 be bd 3d 3f c0 bf 3f 3f c0 bf 3f 3f c0 bf 3f 3f
       0.7411765 0.7490196 0.7490196 0.7490196
000120 b9 b8 38 3f b4 b3 33 3f b6 b5 35 3f bc bb 3b 3f
       0.72156864 0.7019608 0.70980394 0.73333335
000130 be bd 3d 3f b9 b8 38 3f b5 b4 34 3f b8 b7 37 3f
       0.7411765 0.72156864 0.7058824 0.7176471
000140 ae ad 2d 3f b2 b1 31 3f ae ad 2d 3f a1 a0 20 3f
       0.6784314 0.69411767 0.6784314 0.627451
000150 92 91 11 3f 84 83 03 3f e3 e2 e2 3e bf be be 3e
       0.5686275 0.5137255 0.44313726 0.37254903
000160 a5 a4 a4 3e 93 92 92 3e 87 86 86 3e fd fc 7c 3e
       0.32156864 0.28627452 0.2627451 0.24705882
000170 ed ec 6c 3e bd bc 3c 3e 95 94 14 3e 81 80 00 3e
       0.23137255 0.18431373 0.14509805 0.1254902
000180 8d 8c 0c 3e 81 80 00 3e 91 90 10 3e d1 d0 50 3e
       0.13725491 0.1254902 0.14117648 0.20392157
000190 f5 f4 74 3e f1 f0 70 3e fd fc 7c 3e 8b 8a 8a 3e
       0.23921569 0.23529412 0.24705882 0.27058825
0001a0 b5 b4 b4 3e f3 f2 f2 3e 9a 99 19 3f ad ac 2c 3f
       0.3529412 0.4745098 0.6 0.6745098
0001b0 bd bc 3c 3f cd cc 4c 3f dd dc 5c 3f e4 e3 63 3f
       0.7372549 0.8 0.8627451 0.8901961
0001c0 ec eb 6b 3f eb ea 6a 3f ec eb 6b 3f ef ee 6e 3f
       0.92156863 0.91764706 0.92156863 0.93333334
0001d0 f0 ef 6f 3f f4 f3 73 3f f9 f8 78 3f fc fb 7b 3f
       0.9372549 0.9529412 0.972549 0.9843137
0001e0 fe fd 7d 3f 00 00 80 3f 00 00 80 3f fb fa 7a 3f
       0.99215686 1.0 1.0 0.98039216
0001f0 f7 f6 76 3f ef ee 6e 3f f7 f6 76 3f 00 00 80 3f
       0.9647059 0.93333334 0.9647059 1.0
000200 df de de 3e d1 d0 d0 3e c1 c0 c0 3e b1 b0 b0 3e
       0.43529412 0.40784314 0.3764706 0.34509805
000210 a7 a6 a6 3e 9d 9c 9c 3e 93 92 92 3e 8d 8c 8c 3e
       0.3254902 0.30588236 0.28627452 0.27450982
000220 f5 f4 74 3e dd dc 5c 3e c9 c8 48 3e c1 c0 40 3e
       0.23921569 0.21568628 0.19607843 0.1882353
000230 b1 b0 30 3e 9d 9c 1c 3e 91 90 10 3e 91 90 10 3e
       0.17254902 0.15294118 0.14117648 0.14117648
000240 ad ac 2c 3e bd bc 3c 3e dd dc 5c 3e e1 e0 60 3e
       0.16862746 0.18431373 0.21568628 0.21960784
000250 b9 b8 38 3e e1 e0 e0 3d 81 80 80 3d a1 a0 20 3d
       0.18039216 0.10980392 0.0627451 0.039215688
000260 c1 c0 c0 3d a1 a0 a0 3d b9 b8 b8 3d c9 c8 c8 3d
       0.09411765 0.078431375 0.09019608 0.09803922
000270 b1 b0 b0 3d d9 d8 d8 3d e1 e0 e0 3d f1 f0 70 3d
       0.08627451 0.105882354 0.10980392 0.05882353
000280 81 80 80 3d f1 f0 70 3d b1 b0 30 3d c1 c0 40 3d
       0.0627451 0.05882353 0.043137256 0.047058824
000290 99 98 18 3e a7 a6 a6 3e 82 81 01 3f 9c 9b 1b 3f
       0.14901961 0.3254902 0.5058824 0.60784316
0002a0 f9 f8 f8 3e cf ce ce 3e 8b 8a 8a 3e d9 d8 58 3e
       0.4862745 0.40392157 0.27058825 0.21176471
0002b0 d5 d4 54 3e b9 b8 38 3e 8d 8c 0c 3e 95 94 14 3e
       0.20784314 0.18039216 0.13725491 0.14509805
0002c0 a5 a4 24 3e bd bc 3c 3e b1 b0 30 3e 8d 8c 0c 3e
       0.16078432 0.18431373 0.17254902 0.13725491
0002d0 85 84 04 3e 89 88 08 3e e1 e0 e0 3d 81 80 80 3d
       0.12941177 0.13333334 0.10980392 0.0627451
0002e0 a9 a8 a8 3d a1 a0 a0 3d a1 a0 a0 3d c1 c0 c0 3d
       0.08235294 0.078431375 0.078431375 0.09411765
0002f0 91 90 10 3e f9 f8 78 3e d3 d2 d2 3e 8f 8e 0e 3f
       0.14117648 0.24313726 0.4117647 0.5568628
000300 b2 b1 31 3f b5 b4 34 3f b6 b5 35 3f b3 b2 32 3f
       0.69411767 0.7058824 0.70980394 0.69803923
000310 af ae 2e 3f ad ac 2c 3f ac ab 2b 3f ac ab 2b 3f
       0.68235296 0.6745098 0.67058825 0.67058825
000320 b3 b2 32 3f b0 af 2f 3f b1 b0 30 3f b6 b5 35 3f
       0.69803923 0.6862745 0.6901961 0.70980394
000330 b7 b6 36 3f b3 b2 32 3f af ae 2e 3f b1 b0 30 3f
       0.7137255 0.69803923 0.68235296 0.6901961
000340 b5 b4 34 3f b6 b5 35 3f b3 b2 32 3f ab aa 2a 3f
       0.7058824 0.70980394 0.69803923 0.6666667
000350 a7 a6 26 3f a3 a2 22 3f 9a 99 19 3f 8e 8d 0d 3f
       0.6509804 0.63529414 0.6 0.5529412
000360 e9 e8 e8 3e d3 d2 d2 3e bb ba ba 3e a3 a2 a2 3e
       0.45490196 0.4117647 0.3647059 0.31764707
000370 8b 8a 8a 3e d5 d4 54 3e b1 b0 30 3e a9 a8 28 3e
       0.27058825 0.20784314 0.17254902 0.16470589
000380 c1 c0 40 3e b1 b0 30 3e a9 a8 28 3e b5 b4 34 3e
       0.1882353 0.17254902 0.16470589 0.1764706
000390 cd cc 4c 3e e1 e0 60 3e fd fc 7c 3e 91 90 90 3e
       0.2 0.21960784 0.24705882 0.28235295
0003a0 95 94 94 3e bf be be 3e ef ee ee 3e 8f 8e 0e 3f
       0.2901961 0.37254903 0.46666667 0.5568628
0003b0 a8 a7 27 3f c2 c1 41 3f d4 d3 53 3f dd dc 5c 3f
       0.654902 0.75686276 0.827451 0.8627451
0003c0 da d9 59 3f e0 df 5f 3f e7 e6 66 3f ec eb 6b 3f
       0.8509804 0.8745098 0.9019608 0.92156863
0003d0 ef ee 6e 3f f0 ef 6f 3f f6 f5 75 3f fa f9 79 3f
       0.93333334 0.9372549 0.9607843 0.9764706
0003e0 fc fb 7b 3f 00 00 80 3f 00 00 80 3f fc fb 7b 3f
       0.9843137 1.0 1.0 0.9843137
0003f0 f7 f6 76 3f f0 ef 6f 3f f7 f6 76 3f 00 00 80 3f
       0.9647059 0.9372549 0.9647059 1.0

captions i4 [31]
000000 74 00 00 00 68 00 00 00 65 00 00 00 20 00 00 00
       116 104 101 32
000010 67 00 00 00 72 00 00 00 61 00 00 00 73 00 00 00
       103 114 97 115
000020 73 00 00 00 7c 00 00 00 61 00 00 00 20 00 00 00
       115 124 97 32
000030 73 00 00 00 6d 00 00 00 61 00 00 00 6c 00 00 00
       115 109 97 108
000040 6c 00 00 00 20 00 00 00 73 00 00 00 74 00 00 00
       108 32 115 116
000050 75 00 00 00 66 00 00 00 66 00 00 00 65 00 00 00
       117 102 102 101
000060 64 00 00 00 20 00 00 00 6b 00 00 00 6f 00 00 00
       100 32 107 111
000070 61 00 00 00 6c 00 00 00 61 00 00 00
       97 108 97

detection_labels i4 [41]
000000 61 00 00 00 20 00 00 00 73 00 00 00 6d 00 00 00
       97 32 115 109
000010 61 00 00 00 6c 00 00 00 6c 00 00 00 20 00 00 00
       97 108 108 32
000020 73 00 00 00 74 00 00 00 75 00 00 00 66 00 00 00
       115 116 117 102
000030 66 00 00 00 65 00 00 00 64 00 00 00 20 00 00 00
       102 101 100 32
000040 6b 00 00 00 6f 00 00 00 61 00 00 00 6c 00 00 00
       107 111 97 108
000050 61 00 00 00 7c 00 00 00 74 00 00 00 68 00 00 00
       97 124 116 104
000060 65 00 00 00 20 00 00 00 67 00 00 00 72 00 00 00
       101 32 103 114
000070 61 00 00 00 73 00 00 00 73 00 00 00 7c 00 00 00
       97 115 115 124
000080 74 00 00 00 68 00 00 00 65 00 00 00 20 00 00 00
       116 104 101 32
000090 67 00 00 00 72 00 00 00 61 00 00 00 73 00 00 00
       103 114 97 115
0000a0 73 00 00 00
       115
