data/hcaptcha-eval/binary-selection_2e3459e0963ba3c0ac58505a4bf6c3c19fb3bc1bd64bb9aef8494bdc37026647.safetensors (safetensors, 246496 bytes, 5 tensors)

classification_probs f4 [3]
000000 e1 07 56 3a 52 91 7f 3f e6 b3 64 3a
       0.0008164626 0.99831116 0.0008724317

detection_boxes f4 [1, 4]
000000 00 00 a1 40 80 d0 91 3f 27 f3 00 43 03 1b fd 42
       5.03125 1.1391754 128.94981 126.55276

image f4 [3, 128, 128]
000000 f7 f6 76 3f ff fe 7e 3f 00 00 80 3f fd fc 7c 3f
       0.9647059 0.99607843 1.0 0.9882353
000010 00 00 80 3f 00 00 80 3f 00 00 80 3f 00 00 80 3f
       1.0 1.0 1.0 1.0
000020 00 00 80 3f 00 00 80 3f 00 00 80 3f fb fa 7a 3f
       1.0 1.0 1.0 0.98039216
000030 fc fb 7b 3f f9 f8 78 3f f9 f8 78 3f ee ed 6d 3f
       0.9843137 0.972549 0.972549 0.92941177
000040 f2 f1 71 3f ef ee 6e 3f f0 ef 6f 3f f3 f2 72 3f
       0.94509804 0.93333334 0.9372549 0.9490196
000050 f6 f5 75 3f f9 f8 78 3f f9 f8 78 3f fa f9 79 3f
       0.9607843 0.972549 0.972549 0.9764706
000060 f3 f2 72 3f fc fb 7b 3f f3 f2 72 3f f9 f8 78 3f
       0.9490196 0.9843137 0.9490196 0.972549
000070 ed ec 6c 3f f8 f7 77 3f f2 f1 71 3f f8 f7 77 3f
       0.9254902 0.96862745 0.94509804 0.96862745
000080 fa f9 79 3f f7 f6 76 3f f5 f4 74 3f eb ea 6a 3f
       0.9764706 0.9647059 0.95686275 0.91764706
000090 ea e9 69 3f df de 5e 3f e9 e8 68 3f d9 d8 58 3f
       0.9137255 0.87058824 0.9098039 0.84705883
0000a0 de dd 5d 3f d4 d3 53 3f cf ce 4e 3f d8 d7 57 3f
       0.8666667 0.827451 0.80784315 0.84313726
0000b0 e1 e0 60 3f df de 5e 3f d8 d7 57 3f d5 d4 54 3f
       0.8784314 0.87058824 0.84313726 0.83137256
0000c0 cf ce 4e 3f cd cc 4c 3f c8 c7 47 3f c3 c2 42 3f
       0.80784315 0.8 0.78039217 0.7607843
0000d0 c6 c5 45 3f c5 c4 44 3f bc bb 3b 3f ae ad 2d 3f
       0.77254903 0.76862746 0.73333335 0.6784314
0000e0 bb ba 3a 3f be bd 3d 3f b0 af 2f 3f a7 a6 26 3f
       0.7294118 0.7411765 0.6862745 0.6509804
0000f0 91 90 10 3f 93 92 12 3f 82 81 01 3f f7 f6 f6 3e
       0.5647059 0.57254905 0.5058824 0.48235294
000100 93 92 12 3f 8a 89 09 3f af ae 2e 3f a1 a0 20 3f
       0.57254905 0.5372549 0.68235296 0.627451
000110 9e 9d 1d 3f a9 a8 28 3f a4 a3 23 3f 96 95 15 3f
       0.6156863 0.65882355 0.6392157 0.58431375
000120 85 84 04 3f 85 84 04 3f 93 92 12 3f a3 a2 22 3f
       0.5176471 0.5176471 0.57254905 0.63529414
000130 9f 9e 1e 3f 8c 8b 0b 3f 88 87 07 3f 8f 8e 0e 3f
       0.61960787 0.54509807 0.5294118 0.5568628
000140 91 90 10 3f 88 87 07 3f f3 f2 f2 3e e5 e4 e4 3e
       0.5647059 0.5294118 0.4745098 0.44705883
000150 ff fe fe 3e 94 93 13 3f 97 96 16 3f 8f 8e 0e 3f
       0.49803922 0.5764706 0.5882353 0.5568628
000160 94 93 13 3f 8c 8b 0b 3f 8c 8b 0b 3f 86 85 05 3f
       0.5764706 0.54509807 0.54509807 0.52156866
000170 e9 e8 e8 3e cf ce ce 3e 81 80 00 3f 8d 8c 0c 3f
       0.45490196 0.40392157 0.5019608 0.54901963
000180 cb ca ca 3e 86 85 05 3f 84 83 03 3f 86 85 05 3f
       0.39607844 0.52156866 0.5137255 0.52156866
000190 bd bc bc 3e df de de 3e d5 d4 d4 3e ef ee ee 3e
       0.36862746 0.43529412 0.41568628 0.46666667
0001a0 d3 d2 d2 3e c9 c8 c8 3e cf ce ce 3e db da da 3e
       0.4117647 0.39215687 0.40392157 0.42745098
0001b0 e1 e0 e0 3e d7 d6 d6 3e cb ca ca 3e cd cc cc 3e
       0.4392157 0.41960785 0.39607844 0.4
0001c0 d7 d6 d6 3e e5 e4 e4 3e db da da 3e c5 c4 c4 3e
       0.41960785 0.44705883 0.42745098 0.38431373
0001d0 c5 c4 c4 3e d5 d4 d4 3e d7 d6 d6 3e c7 c6 c6 3e
       0.38431373 0.41568628 0.41960785 0.3882353
0001e0 e5 e4 e4 3e c1 c0 c0 3e b5 b4 b4 3e f1 f0 70 3e
       0.44705883 0.3764706 0.3529412 0.23529412
0001f0 f5 f4 f4 3e 9d 9c 9c 3e bd bc bc 3e c5 c4 c4 3e
       0.47843137 0.30588236 0.36862746 0.38431373
000200 ff fe 7e 3f 00 00 80 3f e9 e8 68 3f 00 00 80 3f
       0.99607843 1.0 0.9098039 1.0
000210 f5 f4 74 3f f4 f3 73 3f df de 5e 3f f0 ef 6f 3f
       0.95686275 0.9529412 0.87058824 0.9372549
000220 e3 e2 62 3f e2 e1 61 3f de dd 5d 3f d5 d4 54 3f
       0.8862745 0.88235295 0.8666667 0.83137256
000230 d2 d1 51 3f cf ce 4e 3f cd cc 4c 3f c8 c7 47 3f
       0.81960785 0.80784315 0.8 0.78039217
000240 b7 b6 36 3f ad ac 2c 3f a9 a8 28 3f ad ac 2c 3f
       0.7137255 0.6745098 0.65882355 0.6745098
000250 b0 af 2f 3f ad ac 2c 3f ae ad 2d 3f b2 b1 31 3f
       0.6862745 0.6745098 0.6784314 0.69411767
000260 a5 a4 24 3f 90 8f 0f 3f c3 c2 42 3f 95 94 14 3f
       0.6431373 0.56078434 0.7607843 0.5803922
000270 b2 b1 31 3f 82 81 01 3f af ae 2e 3f 93 92 12 3f
       0.69411767 0.5058824 0.68235296 0.57254905
000280 af ae 2e 3f 84 83 03 3f 9c 9b 1b 3f 96 95 15 3f
       0.68235296 0.5137255 0.60784316 0.58431375
000290 af ae 2e 3f 9c 9b 1b 3f 8e 8d 0d 3f 83 82 02 3f
       0.68235296 0.60784316 0.5529412 0.50980395
0002a0 9b 9a 1a 3f 99 98 18 3f 9b 9a 1a 3f a4 a3 23 3f
       0.6039216 0.59607846 0.6039216 0.6392157
0002b0 a9 a8 28 3f a5 a4 24 3f a4 a3 23 3f a6 a5 25 3f
       0.65882355 0.6431373 0.6392157 0.64705884
0002c0 9f 9e 1e 3f 9f 9e 1e 3f a0 9f 1f 3f a1 a0 20 3f
       0.61960787 0.61960787 0.62352943 0.627451
0002d0 a3 a2 22 3f a2 a1 21 3f a2 a1 21 3f 9e 9d 1d 3f
       0.63529414 0.6313726 0.6313726 0.6156863
0002e0 b7 b6 36 3f 9e 9d 1d 3f 8d 8c 0c 3f b6 b5 35 3f
       0.7137255 0.6156863 0.54901963 0.70980394
0002f0 a5 a4 24 3f 97 96 16 3f 84 83 03 3f 9f 9e 1e 3f
       0.6431373 0.5882353 0.5137255 0.61960787
000300 9c 9b 1b 3f 99 98 18 3f 95 94 14 3f f9 f8 f8 3e
       0.60784316 0.59607846 0.5803922 0.4862745
000310 b0 af 2f 3f 9b 9a 1a 3f 8c 8b 0b 3f 94 93 13 3f
       0.6862745 0.6039216 0.54509807 0.5764706
000320 94 93 13 3f 94 93 13 3f 97 96 16 3f 97 96 16 3f
       0.5764706 0.5764706 0.5882353 0.5882353
000330 93 92 12 3f 8d 8c 0c 3f 8b 8a 0a 3f 8a 89 09 3f
       0.57254905 0.54901963 0.5411765 0.5372549
000340 8a 89 09 3f 8d 8c 0c 3f 90 8f 0f 3f 8e 8d 0d 3f
       0.5372549 0.54901963 0.56078434 0.5529412
000350 8d 8c 0c 3f 91 90 10 3f 92 91 11 3f 92 91 11 3f
       0.54901963 0.5647059 0.5686275 0.5686275
000360 8a 89 09 3f eb ea ea 3e 92 91 11 3f a3 a2 22 3f
       0.5372549 0.45882353 0.5686275 0.63529414
000370 9f 9e 1e 3f 9a 99 19 3f 81 80 00 3f 87 86 06 3f
       0.61960787 0.6 0.5019608 0.5254902
000380 89 88 08 3f ed ec ec 3e e1 e0 e0 3e c7 c6 c6 3e
       0.53333336 0.4627451 0.4392157 0.3882353
000390 f1 f0 f0 3e e1 e0 e0 3e e7 e6 e6 3e cf ce ce 3e
       0.47058824 0.4392157 0.4509804 0.40392157
0003a0 e9 e8 e8 3e db da da 3e cf ce ce 3e c7 c6 c6 3e
       0.45490196 0.42745098 0.40392157 0.3882353
0003b0 bf be be 3e bb ba ba 3e c1 c0 c0 3e d1 d0 d0 3e
       0.37254903 0.3647059 0.3764706 0.40784314
0003c0 cf ce ce 3e df de de 3e d7 d6 d6 3e c3 c2 c2 3e
       0.40392157 0.43529412 0.41960785 0.38039216
0003d0 bf be be 3e d1 d0 d0 3e d3 d2 d2 3e c3 c2 c2 3e
       0.37254903 0.40784314 0.4117647 0.38039216
0003e0 87 86 86 3e f7 f6 f6 3e d9 d8 d8 3e 9d 9c 9c 3e
       0.2627451 0.48235294 0.42352942 0.30588236
0003f0 bd bc 3c 3e 85 84 04 3f ab aa aa 3e db da da 3e
       0.18431373 0.5176471 0.33333334 0.42745098

captions i4 [35]
000000 61 00 00 00 20 00 00 00 63 00 00 00 6c 00 00 00
       97 32 99 108
000010 6f 00 00 00 73 00 00 00 65 00 00 00 7c 00 00 00
       111 115 101 124
000020 61 00 00 00 20 00 00 00 74 00 00 00 69 00 00 00
       97 32 116 105
000030 67 00 00 00 65 00 00 00 72 00 00 00 7c 00 00 00
       103 101 114 124
000040 61 00 00 00 20 00 00 00 62 00 00 00 6c 00 00 00
       97 32 98 108
000050 75 00 00 00 72 00 00 00 72 00 00 00 79 00 00 00
       117 114 114 121
000060 20 00 00 00 62 00 00 00 61 00 00 00 63 00 00 00
       32 98 97 99
000070 6b 00 00 00 67 00 00 00 72 00 00 00 6f 00 00 00
       107 103 114 111
000080 75 00 00 00 6e 00 00 00 64 00 00 00
       117 110 100

detection_labels i4 [7]
000000 61 00 00 00 20 00 00 00 74 00 00 00 69 00 00 00
       97 32 116 105
000010 67 00 00 00 65 00 00 00 72 00 00 00
       103 101 114
