data/hcaptcha-eval/binary-selection_2a46eecf9eaceb63db393abd52df1d057402c0a1b95687859b89cb2aeade5674.safetensors (safetensors, 591032 bytes, 6 tensors)

classification_probs f4 [3]
0	0x3e8c995b	0.2746075
1	0x3b7c46d5	0.0038494368
2	0x3f38b70c	0.7215431

detection_boxes f4 [8, 4]
0	0x40201370	2.5011864
1	0x3f86ac40	1.0521317
2	0x42fff8c0	127.98584
3	0x429ac67d	77.38767
4	0x423a7e46	46.623314
5	0xbf23f400	-0.6404419
6	0x42a2bf8d	81.37412
7	0x422fe78b	43.976116
8	0x41d25932	26.293552
9	0xbf377f00	-0.7167816
10	0x430144dd	129.269
11	0x422f4502	43.81739
12	0x3f867cc0	1.0506821
13	0x401bd5a0	2.4349136
14	0x42ffd9d5	127.92545
15	0x43007086	128.43954
16	0x421a2c16	38.543053
17	0xbf8816b0	-1.0631924
18	0x42a05d22	80.1819
19	0x427e48e8	63.571198
20	0x423d0b04	47.260757
21	0x4275f140	61.485596
22	0x4288f0f8	68.47064
23	0x42918240	72.754395
24	0x4039bcf0	2.9021568
25	0x421e9dd5	39.654133
26	0x42f8420a	124.12898
27	0x42e42be2	114.08571
28	0x4222d100	40.7041
29	0x425caaa0	55.166626
30	0x428f039e	71.507065
31	0x42c3e2a0	97.94263

detection_scores f4 [8]
0	0x3e07e0c9	0.13269342
1	0x3e6a8db5	0.2290562
2	0x3debfbec	0.1152266
3	0x3ea29c96	0.3176009
4	0x3df5e5bd	0.1200671
5	0x3e44a868	0.19204867
6	0x3edeea9e	0.43538374
7	0x3dea43a2	0.11438681

image f4 [3, 128, 128]
0	0x3f71f1f2	0.94509804
1	0x3f5adadb	0.85490197
2	0x3e189899	0.14901961
3	0x3dc8c8c9	0.09803922
4	0x3e088889	0.13333334
5	0x3da0a0a1	0.078431375
6	0x3d60e0e1	0.05490196
7	0x3d40c0c1	0.047058824
8	0x3d909091	0.07058824
9	0x3de0e0e1	0.10980392
10	0x3e4ccccd	0.2
11	0x3e969697	0.29411766
12	0x3eb8b8b9	0.36078432
13	0x3eb0b0b1	0.34509805
14	0x3e8e8e8f	0.2784314
15	0x3e4ccccd	0.2
16	0x3e0c8c8d	0.13725491
17	0x3db0b0b1	0.08627451
18	0x3dc8c8c9	0.09803922
19	0x3e2cacad	0.16862746
20	0x3e48c8c9	0.19607843
21	0x3e20a0a1	0.15686275
22	0x3e008081	0.1254902
23	0x3e0c8c8d	0.13725491
24	0x3de8e8e9	0.11372549
25	0x3db8b8b9	0.09019608
26	0x3d909091	0.07058824
27	0x3d989899	0.07450981
28	0x3dc8c8c9	0.09803922
29	0x3de8e8e9	0.11372549
30	0x3df0f0f1	0.11764706
31	0x3de0e0e1	0.10980392
32	0x3e30b0b1	0.17254902
33	0x3e3cbcbd	0.18431373
34	0x3e888889	0.26666668
35	0x3ec6c6c7	0.3882353
36	0x3edadadb	0.42745098
37	0x3ec0c0c1	0.3764706
38	0x3ea8a8a9	0.32941177
39	0x3ea4a4a5	0.32156864
40	0x3ed2d2d3	0.4117647
41	0x3eeaeaeb	0.45882353
42	0x3eececed	0.4627451
43	0x3ee2e2e3	0.44313726
44	0x3ef4f4f5	0.47843137
45	0x3f09898a	0.5372549
46	0x3efcfcfd	0.49411765
47	0x3ec8c8c9	0.39215687
48	0x3e9a9a9b	0.3019608
49	0x3e8e8e8f	0.2784314
50	0x3ea6a6a7	0.3254902
51	0x3ea4a4a5	0.32156864
52	0x3e70f0f1	0.23529412
53	0x3e888889	0.26666668
54	0x3edededf	0.43529412
55	0x3f0c8c8d	0.54901963
56	0x3f189899	0.59607846
57	0x3f3bbbbc	0.73333335
58	0x3f4fcfd0	0.8117647
59	0x3f42c2c3	0.7607843
60	0x3f37b7b8	0.7176471
61	0x3f3dbdbe	0.7411765
62	0x3f37b7b8	0.7176471
63	0x3f24a4a5	0.6431373
64	0x3f25a5a6	0.64705884
65	0x3f20a0a1	0.627451
66	0x3f1c9c9d	0.6117647
67	0x3f1b9b9c	0.60784316
68	0x3f26a6a7	0.6509804
69	0x3f38b8b9	0.72156864
70	0x3f4dcdce	0.8039216
71	0x3f5bdbdc	0.85882354
72	0x3f4bcbcc	0.79607844
73	0x3f37b7b8	0.7176471
74	0x3f179798	0.5921569
75	0x3ee6e6e7	0.4509804
76	0x3ea8a8a9	0.32941177
77	0x3e8a8a8b	0.27058825
78	0x3e949495	0.2901961
79	0x3eaeaeaf	0.34117648
80	0x3ec6c6c7	0.3882353
81	0x3ee8e8e9	0.45490196
82	0x3f0e8e8f	0.5568628
83	0x3f1e9e9f	0.61960787
84	0x3f159596	0.58431375
85	0x3ef4f4f5	0.47843137
86	0x3ecccccd	0.4
87	0x3ebababb	0.3647059
88	0x3ec0c0c1	0.3764706
89	0x3ee8e8e9	0.45490196
90	0x3ef4f4f5	0.47843137
91	0x3f008081	0.5019608
92	0x3f169697	0.5882353
93	0x3f179798	0.5921569
94	0x3f0d8d8e	0.5529412
95	0x3f139394	0.5764706
96	0x3f2cacad	0.6745098
97	0x3f2fafb0	0.6862745
98	0x3f38b8b9	0.72156864
99	0x3f43c3c4	0.7647059
100	0x3f48c8c9	0.78431374
101	0x3f40c0c1	0.7529412
102	0x3f3ababb	0.7294118
103	0x3f39b9ba	0.7254902
104	0x3f4dcdce	0.8039216
105	0x3f4acacb	0.7921569
106	0x3f4fcfd0	0.8117647
107	0x3f5adadb	0.85490197
108	0x3f5dddde	0.8666667
109	0x3f5adadb	0.85490197
110	0x3f59d9da	0.8509804
111	0x3f5cdcdd	0.8627451
112	0x3f61e1e2	0.88235295
113	0x3f5dddde	0.8666667
114	0x3f5bdbdc	0.85882354
115	0x3f53d3d4	0.827451
116	0x3f4fcfd0	0.8117647
117	0x3f5bdbdc	0.85882354
118	0x3f62e2e3	0.8862745
119	0x3f56d6d7	0.8392157
120	0x3f51d1d2	0.81960785
121	0x3f47c7c8	0.78039217
122	0x3f52d2d3	0.8235294
123	0x3f61e1e2	0.88235295
124	0x3f66e6e7	0.9019608
125	0x3f65e5e6	0.8980392
126	0x3f6ceced	0.9254902
127	0x3f6bebec	0.92156863
128	0x3f6ceced	0.9254902
129	0x3f4ececf	0.80784315
130	0x3e088889	0.13333334
131	0x3dc8c8c9	0.09803922
132	0x3e088889	0.13333334
133	0x3dc0c0c1	0.09411765
134	0x3da0a0a1	0.078431375
135	0x3da8a8a9	0.08235294
136	0x3dc0c0c1	0.09411765
137	0x3db8b8b9	0.09019608
138	0x3de0e0e1	0.10980392
139	0x3e24a4a5	0.16078432
140	0x3e6ceced	0.23137255
141	0x3e929293	0.28627452
142	0x3ea4a4a5	0.32156864
143	0x3ea0a0a1	0.3137255
144	0x3e54d4d5	0.20784314
145	0x3e149495	0.14509805
146	0x3de8e8e9	0.11372549
147	0x3e088889	0.13333334
148	0x3e20a0a1	0.15686275
149	0x3e149495	0.14509805
150	0x3e0c8c8d	0.13725491
151	0x3e149495	0.14509805
152	0x3e1c9c9d	0.15294118
153	0x3e149495	0.14509805
154	0x3e0c8c8d	0.13725491
155	0x3e008081	0.1254902
156	0x3df8f8f9	0.12156863
157	0x3df8f8f9	0.12156863
158	0x3e048485	0.12941177
159	0x3e088889	0.13333334
160	0x3e109091	0.14117648
161	0x3e048485	0.12941177
162	0x3e40c0c1	0.1882353
163	0x3ea2a2a3	0.31764707
164	0x3edadadb	0.42745098
165	0x3edcdcdd	0.43137255
166	0x3ec0c0c1	0.3764706
167	0x3ea8a8a9	0.32941177
168	0x3edadadb	0.42745098
169	0x3edcdcdd	0.43137255
170	0x3ed8d8d9	0.42352942
171	0x3ee2e2e3	0.44313726
172	0x3f088889	0.53333336
173	0x3f1e9e9f	0.61960787
174	0x3f0d8d8e	0.5529412
175	0x3ed6d6d7	0.41960785
176	0x3e8a8a8b	0.27058825
177	0x3e888889	0.26666668
178	0x3e9a9a9b	0.3019608
179	0x3e989899	0.29803923
180	0x3e848485	0.25882354
181	0x3e8c8c8d	0.27450982
182	0x3ec6c6c7	0.3882353
183	0x3ef6f6f7	0.48235294
184	0x3f22a2a3	0.63529414
185	0x3f40c0c1	0.7529412
186	0x3f56d6d7	0.8392157
187	0x3f55d5d6	0.8352941
188	0x3f4dcdce	0.8039216
189	0x3f43c3c4	0.7647059
190	0x3f26a6a7	0.6509804
191	0x3f048485	0.5176471
192	0x3f068687	0.5254902
193	0x3f179798	0.5921569
194	0x3f29a9aa	0.6627451
195	0x3f2fafb0	0.6862745
196	0x3f38b8b9	0.72156864
197	0x3f45c5c6	0.77254903
198	0x3f50d0d1	0.8156863
199	0x3f53d3d4	0.827451
200	0x3f4ccccd	0.8
201	0x3f32b2b3	0.69803923
202	0x3f119192	0.5686275
203	0x3ef8f8f9	0.4862745
204	0x3eeeeeef	0.46666667
205	0x3ed8d8d9	0.42352942
206	0x3eacacad	0.3372549
207	0x3e868687	0.2627451
208	0x3eb2b2b3	0.34901962
209	0x3ec6c6c7	0.3882353
210	0x3ee4e4e5	0.44705883
211	0x3efafafb	0.49019608
212	0x3efefeff	0.49803922
213	0x3efcfcfd	0.49411765
214	0x3f09898a	0.5372549
215	0x3f159596	0.58431375
216	0x3f22a2a3	0.63529414
217	0x3f28a8a9	0.65882355
218	0x3f25a5a6	0.64705884
219	0x3f1f9fa0	0.62352943
220	0x3f27a7a8	0.654902
221	0x3f2fafb0	0.6862745
222	0x3f36b6b7	0.7137255
223	0x3f42c2c3	0.7607843
224	0x3f3dbdbe	0.7411765
225	0x3f33b3b4	0.7019608
226	0x3f29a9aa	0.6627451
227	0x3f2dadae	0.6784314
228	0x3f38b8b9	0.72156864
229	0x3f3fbfc0	0.7490196
230	0x3f44c4c5	0.76862746
231	0x3f49c9ca	0.7882353
232	0x3f49c9ca	0.7882353
233	0x3f4ccccd	0.8
234	0x3f48c8c9	0.78431374
235	0x3f40c0c1	0.7529412
236	0x3f42c2c3	0.7607843
237	0x3f4ccccd	0.8
238	0x3f4ececf	0.80784315
239	0x3f47c7c8	0.78039217
240	0x3f4dcdce	0.8039216
241	0x3f4ececf	0.80784315
242	0x3f56d6d7	0.8392157
243	0x3f53d3d4	0.827451
244	0x3f43c3c4	0.7647059
245	0x3f3bbbbc	0.73333335
246	0x3f30b0b1	0.6901961
247	0x3f1e9e9f	0.61960787
248	0x3f048485	0.5176471
249	0x3f088889	0.53333336
250	0x3f26a6a7	0.6509804
251	0x3f43c3c4	0.7647059
252	0x3f51d1d2	0.81960785
253	0x3f53d3d4	0.827451
254	0x3f50d0d1	0.8156863
255	0x3f46c6c7	0.7764706

captions i4 [35]
0	0x00000061	97
1	0x00000020	32
2	0x00000073	115
3	0x00000063	99
4	0x00000075	117
5	0x00000062	98
6	0x00000061	97
7	0x00000020	32
8	0x0000006d	109
9	0x00000061	97
10	0x00000073	115
11	0x0000006b	107
12	0x0000007c	124
13	0x00000074	116
14	0x00000068	104
15	0x00000065	101
16	0x00000020	32
17	0x00000077	119
18	0x00000061	97
19	0x00000074	116
20	0x00000065	101
21	0x00000072	114
22	0x0000007c	124
23	0x00000061	97
24	0x00000020	32
25	0x0000006d	109
26	0x00000061	97
27	0x0000006e	110
28	0x00000020	32
29	0x00000064	100
30	0x00000069	105
31	0x00000076	118
32	0x00000069	105
33	0x0000006e	110
34	0x00000067	103

detection_labels i4 [88]
0	0x00000074	116
1	0x00000068	104
2	0x00000065	101
3	0x00000020	32
4	0x00000077	119
5	0x00000061	97
6	0x00000074	116
7	0x00000065	101
8	0x00000072	114
9	0x0000007c	124
10	0x00000074	116
11	0x00000068	104
12	0x00000065	101
13	0x00000020	32
14	0x00000077	119
15	0x00000061	97
16	0x00000074	116
17	0x00000065	101
18	0x00000072	114
19	0x0000007c	124
20	0x00000074	116
21	0x00000068	104
22	0x00000065	101
23	0x00000020	32
24	0x00000077	119
25	0x00000061	97
26	0x00000074	116
27	0x00000065	101
28	0x00000072	114
29	0x0000007c	124
30	0x00000074	116
31	0x00000068	104
32	0x00000065	101
33	0x00000020	32
34	0x00000077	119
35	0x00000061	97
36	0x00000074	116
37	0x00000065	101
38	0x00000072	114
39	0x0000007c	124
40	0x00000074	116
41	0x00000068	104
42	0x00000065	101
43	0x00000020	32
44	0x00000077	119
45	0x00000061	97
46	0x00000074	116
47	0x00000065	101
48	0x00000072	114
49	0x0000007c	124
50	0x00000061	97
51	0x00000020	32
52	0x00000073	115
53	0x00000063	99
54	0x00000075	117
55	0x00000062	98
56	0x00000061	97
57	0x00000020	32
58	0x0000006d	109
59	0x00000061	97
60	0x00000073	115
61	0x0000006b	107
62	0x0000007c	124
63	0x00000061	97
64	0x00000020	32
65	0x0000006d	109
66	0x00000061	97
67	0x0000006e	110
68	0x00000020	32
69	0x00000064	100
70	0x00000069	105
71	0x00000076	118
72	0x00000069	105
73	0x0000006e	110
74	0x00000067	103
75	0x0000007c	124
76	0x00000061	97
77	0x00000020	32
78	0x00000073	115
79	0x00000063	99
80	0x00000075	117
81	0x00000062	98
82	0x00000061	97
83	0x00000020	32
84	0x0000006d	109
85	0x00000061	97
86	0x00000073	115
87	0x0000006b	107
