data/hcaptcha-eval/binary-selection_5e24bc157526b8e9c44a5282fe0e0d91aa144ecc06cf36bb11e57b572291297f.safetensors (safetensors, 246524 bytes, 5 tensors)

classification_probs f4 [3]
00000000: eb88 7e3f 8065 6f3a af9d 9d3b
0.9942767 0.0009132251 0.004810057

detection_boxes f4 [1, 4]
00000000: 26fc 0d42 408e 523f 95ea fb42 7488 ff42
35.49624 0.82248306 125.95817 127.76651

image f4 [3, 128, 128]
00000000: faf9 793f f9f8 783f f8f7 773f f4f3 733f
00000010: f1f0 703f f0ef 6f3f eeed 6d3f ebea 6a3f
00000020: e8e7 673f e5e4 643f e4e3 633f e1e0 603f
00000030: e1e0 603f dfde 5e3f dddc 5c3f d8d7 573f
00000040: cecd 4d3f c0bf 3f3f bcbb 3b3f bbba 3a3f
00000050: bbba 3a3f b2b1 313f aaa9 293f a8a7 273f
00000060: a5a4 243f aaa9 293f afae 2e3f b3b2 323f
00000070: b5b4 343f bbba 3a3f c2c1 413f bfbe 3e3f
00000080: abaa 2a3f 9e9d 1d3f efee ee3e b1b0 b03e
00000090: a3a2 a23e fdfc 7c3e 8382 823e d5d4 d43e
000000a0: b4b3 333f d2d1 513f dbda 5a3f cfce 4e3f
000000b0: bdbc 3c3f a7a6 263f 9897 173f 9796 163f
000000c0: 9897 173f 9190 103f 9897 173f 9897 173f
000000d0: 8887 073f e9e8 e83e c9c8 c83e a7a6 a63e
000000e0: cbca ca3e abaa aa3e 8786 863e f5f4 743e
000000f0: 9392 923e b5b4 b43e c9c8 c83e b9b8 b83e
00000100: fdfc 7c3e d9d8 583e d1d0 503e cdcc 4c3e
00000110: cdcc 4c3e c9c8 483e dddc 5c3e edec 6c3e
00000120: c9c8 483e d5d4 543e dddc 5c3e cdcc 4c3e
00000130: d5d4 543e d9d8 583e d9d8 583e d1d0 503e
00000140: e1e0 603e f1f0 703e e1e0 603e b9b8 383e
00000150: 9d9c 1c3e 9998 183e bdbc 3c3e d9d8 583e
00000160: 8180 803e 9594 943e a1a0 a03e 8f8e 8e3e
00000170: d9d8 583e 9d9c 1c3e 9190 103e 9d9c 1c3e
00000180: 8d8c 8c3e 9f9e 9e3e d5d4 d43e 8281 013f
00000190: 9796 163f b1b0 303f a2a1 213f dbda da3e
000001a0: e1e0 e03d a1a0 a03c f1f0 703d 8584 843e
000001b0: abaa aa3e b1b0 b03e d1d0 d03e b3b2 b23e
000001c0: c9c8 483e cdcc 4c3e f1f0 703e 9594 943e
000001d0: b9b8 b83e d9d8 d83e f9f8 f83e 8988 083f
000001e0: 9c9b 1b3f a2a1 213f aead 2d3f b2b1 313f
000001f0: bfbe 3e3f e2e1 613f f3f2 723f f6f5 753f
00000200: cccb 4b3f c7c6 463f c2c1 413f bab9 393f
00000210: afae 2e3f a5a4 243f 9c9b 1b3f 9594 143f
00000220: 8786 063f 8786 063f 8584 043f fbfa fa3e
00000230: edec ec3e e1e0 e03e e3e2 e23e e1e0 e03e
00000240: dddc dc3e b5b4 b43e 9796 963e 8786 863e
00000250: 8786 863e 8b8a 8a3e 9796 963e a7a6 a63e
00000260: bdbc bc3e cdcc cc3e efee ee3e 8685 053f
00000270: 9594 143f 9e9d 1d3f a4a3 233f a1a0 203f
00000280: 8c8b 0b3f 8c8b 0b3f e3e2 e23e a9a8 a83e
00000290: 8786 863e adac 2c3e bdbc 3c3e b5b4 b43e
000002a0: a8a7 273f b3b2 323f a5a4 243f 8f8e 0e3f
000002b0: 9796 163f a9a8 283f a5a4 243f 9493 133f
000002c0: a9a8 283f 9695 153f 8988 083f 8180 003f
000002d0: f3f2 f23e f3f2 f23e f1f0 f03e d5d4 d43e
000002e0: a3a2 a23e a1a0 a03e 8b8a 8a3e dddc 5c3e
000002f0: f1f0 703e abaa aa3e dbda da3e dddc dc3e
00000300: a3a2 a23e 8f8e 8e3e 8180 803e e9e8 683e
00000310: d1d0 503e c5c4 443e cdcc 4c3e d5d4 543e
00000320: d5d4 543e e1e0 603e e5e4 643e dddc 5c3e
00000330: e9e8 683e f9f8 783e 8382 823e fdfc 7c3e
00000340: d1d0 503e c5c4 443e bdbc 3c3e b9b8 383e
00000350: b9b8 383e b1b0 303e adac 2c3e bdbc 3c3e
00000360: d5d4 543e f9f8 783e 9392 923e a7a6 a63e
00000370: b5b4 b43e abaa aa3e 8f8e 8e3e edec 6c3e
00000380: c3c2 c23e f3f2 f23e 9e9d 1d3f a3a2 223f
00000390: 8887 073f d1d0 d03e edec 6c3e c1c0 403c
000003a0: b1b0 303d c1c0 403d b5b4 343e b1b0 b03e
000003b0: b3b2 b23e d1d0 d03e fbfa fa3e adac ac3e
000003c0: cdcc 4c3e e9e8 683e 9594 943e afae ae3e
000003d0: bfbe be3e cbca ca3e e1e0 e03e fbfa fa3e
000003e0: 9a99 193f a1a0 203f abaa 2a3f afae 2e3f
000003f0: bcbb 3b3f dddc 5c3f f5f4 743f efee 6e3f
0.9764706 0.972549 0.96862745 0.9529412 0.9411765 0.9372549 0.92941177 0.91764706
0.90588236 0.89411765 0.8901961 0.8784314 0.8784314 0.87058824 0.8627451 0.84313726
0.8039216 0.7490196 0.73333335 0.7294118 0.7294118 0.69411767 0.6627451 0.654902
0.6431373 0.6627451 0.68235296 0.69803923 0.7058824 0.7294118 0.75686276 0.74509805
0.6666667 0.6156863 0.46666667 0.34509805 0.31764707 0.24705882 0.25490198 0.41568628
0.7019608 0.81960785 0.85490197 0.80784315 0.7372549 0.6509804 0.5921569 0.5882353
0.5921569 0.5647059 0.5921569 0.5921569 0.5294118 0.45490196 0.39215687 0.3254902
0.39607844 0.33333334 0.2627451 0.23921569 0.28627452 0.3529412 0.39215687 0.36078432
0.24705882 0.21176471 0.20392157 0.2 0.2 0.19607843 0.21568628 0.23137255
0.19607843 0.20784314 0.21568628 0.2 0.20784314 0.21176471 0.21176471 0.20392157
0.21960784 0.23529412 0.21960784 0.18039216 0.15294118 0.14901961 0.18431373 0.21176471
0.2509804 0.2901961 0.3137255 0.2784314 0.21176471 0.15294118 0.14117648 0.15294118
0.27450982 0.30980393 0.41568628 0.5058824 0.5882353 0.6901961 0.6313726 0.42745098
0.10980392 0.019607844 0.05882353 0.25882354 0.33333334 0.34509805 0.40784314 0.34901962
0.19607843 0.2 0.23529412 0.2901961 0.36078432 0.42352942 0.4862745 0.53333336
0.60784316 0.6313726 0.6784314 0.69411767 0.74509805 0.88235295 0.9490196 0.9607843
0.79607844 0.7764706 0.75686276 0.7254902 0.68235296 0.6431373 0.60784316 0.5803922
0.5254902 0.5254902 0.5176471 0.49019608 0.4627451 0.4392157 0.44313726 0.4392157
0.43137255 0.3529412 0.29411766 0.2627451 0.2627451 0.27058825 0.29411766 0.3254902
0.36862746 0.4 0.46666667 0.52156866 0.5803922 0.6156863 0.6392157 0.627451
0.54509807 0.54509807 0.44313726 0.32941177 0.2627451 0.16862746 0.18431373 0.3529412
0.654902 0.69803923 0.6431373 0.5568628 0.5882353 0.65882355 0.6431373 0.5764706
0.65882355 0.58431375 0.53333336 0.5019608 0.4745098 0.4745098 0.47058824 0.41568628
0.31764707 0.3137255 0.27058825 0.21568628 0.23529412 0.33333334 0.42745098 0.43137255
0.31764707 0.2784314 0.2509804 0.22745098 0.20392157 0.19215687 0.2 0.20784314
0.20784314 0.21960784 0.22352941 0.21568628 0.22745098 0.24313726 0.25490198 0.24705882
0.20392157 0.19215687 0.18431373 0.18039216 0.18039216 0.17254902 0.16862746 0.18431373
0.20784314 0.24313726 0.28627452 0.3254902 0.3529412 0.33333334 0.2784314 0.23137255
0.38039216 0.4745098 0.6156863 0.63529414 0.5294118 0.40784314 0.23137255 0.011764706
0.043137256 0.047058824 0.1764706 0.34509805 0.34901962 0.40784314 0.49019608 0.3372549
0.2 0.22745098 0.2901961 0.34117648 0.37254903 0.39607844 0.4392157 0.49019608
0.6 0.627451 0.6666667 0.68235296 0.73333335 0.8627451 0.95686275 0.93333334

captions i4 [41]
00000000: 6100 0000 2000 0000 7200 0000 6100 0000
00000010: 6200 0000 6200 0000 6900 0000 7400 0000
00000020: 7c00 0000 6100 0000 2000 0000 6300 0000
00000030: 6f00 0000 6c00 0000 6f00 0000 7200 0000
00000040: 6600 0000 7500 0000 6c00 0000 2000 0000
00000050: 6200 0000 6100 0000 6300 0000 6b00 0000
00000060: 6700 0000 7200 0000 6f00 0000 7500 0000
00000070: 6e00 0000 6400 0000 7c00 0000 6100 0000
00000080: 2000 0000 7000 0000 6100 0000 6900 0000
00000090: 6e00 0000 7400 0000 6900 0000 6e00 0000
000000a0: 6700 0000
97 32 114 97 98 98 105 116
124 97 32 99 111 108 111 114
102 117 108 32 98 97 99 107
103 114 111 117 110 100 124 97
32 112 97 105 110 116 105 110
103

detection_labels i4 [8]
00000000: 6100 0000 2000 0000 7200 0000 6100 0000
00000010: 6200 0000 6200 0000 6900 0000 7400 0000
97 32 114 97 98 98 105 116
