data/hcaptcha-eval/binary-selection_3f3cd0fb58eea4f24a26467c306f7d779cbbcfc5a60c4c8ab3a5131f2182c245.safetensors (safetensors, 640092 bytes, 6 tensors)

classification_probs f4 [3]
0	0x3a1e5cd7	0.0006041056
1	0x3b96dcc4	0.004603954
2	0x3f7eaaaf	0.9947919

detection_boxes f4 [9, 4]
0	0x3ff4bf70	1.9120922
1	0x3f02bc40	0.51068497
2	0x4205b200	33.42383
3	0x42abdcfe	85.931625
4	0x415f8885	13.97083
5	0xbf589cc0	-0.8461418
6	0x41e5282a	28.644611
7	0x42ab41ca	85.628494
8	0x4154422d	13.266156
9	0x3d8bfe00	0.06835556
10	0x41d986d0	27.190826
11	0x42abef88	85.967834
12	0x4268a028	58.156403
13	0x420e7973	35.618603
14	0x42e1c7b4	112.890045
15	0x42d0c6e6	104.38847
16	0x4267ad7c	57.91942
17	0x420dd70e	35.460014
18	0x42e24cfe	113.150375
19	0x42d0f7a7	104.483696
20	0x426a9de4	58.65419
21	0x4212da54	36.71321
22	0x42e010fc	112.03317
23	0x42cea204	103.31644
24	0x4294f74a	74.48299
25	0x421f630c	39.846725
26	0x42dcf9be	110.48778
27	0x42cc38c0	102.11084
28	0x425b6217	54.84579
29	0x42084359	34.06577
30	0x42e3d864	113.92264
31	0x42d0b79a	104.3586
32	0xbf8d3800	-1.1032715
33	0x40c29028	6.080097
34	0x42fbe89c	125.954315
35	0x42ffdb50	127.928345

detection_scores f4 [9]
0	0x3dd9b8cd	0.10630951
1	0x3de81408	0.11331946
2	0x3e04e8e8	0.12979472
3	0x3e1126c0	0.14174938
4	0x3df05f56	0.11736934
5	0x3f32de64	0.6987059
6	0x3dd1a5d5	0.10236708
7	0x3e2aa518	0.16664541
8	0x3dccf3ff	0.10007476

image f4 [3, 128, 128]
0	0x3f2aaaab	0.6666667
1	0x3ea2a2a3	0.31764707
2	0x3eaeaeaf	0.34117648
3	0x3eb8b8b9	0.36078432
4	0x3e9a9a9b	0.3019608
5	0x3e68e8e9	0.22745098
6	0x3e868687	0.2627451
7	0x3e44c4c5	0.19215687
8	0x3e149495	0.14509805
9	0x3e24a4a5	0.16078432
10	0x3e50d0d1	0.20392157
11	0x3e4ccccd	0.2
12	0x3e44c4c5	0.19215687
13	0x3e68e8e9	0.22745098
14	0x3e78f8f9	0.24313726
15	0x3e48c8c9	0.19607843
16	0x3e3cbcbd	0.18431373
17	0x3e5cdcdd	0.21568628
18	0x3e70f0f1	0.23529412
19	0x3e9c9c9d	0.30588236
20	0x3ed4d4d5	0.41568628
21	0x3ee8e8e9	0.45490196
22	0x3ee0e0e1	0.4392157
23	0x3edededf	0.43529412
24	0x3ecccccd	0.4
25	0x3eb6b6b7	0.35686275
26	0x3eb8b8b9	0.36078432
27	0x3eb0b0b1	0.34509805
28	0x3e8c8c8d	0.27450982
29	0x3e68e8e9	0.22745098
30	0x3e6ceced	0.23137255
31	0x3e70f0f1	0.23529412
32	0x3e909091	0.28235295
33	0x3e828283	0.25490198
34	0x3e6ceced	0.23137255
35	0x3e78f8f9	0.24313726
36	0x3e78f8f9	0.24313726
37	0x3e58d8d9	0.21176471
38	0x3e24a4a5	0.16078432
39	0x3df8f8f9	0.12156863
40	0x3e20a0a1	0.15686275
41	0x3e40c0c1	0.1882353
42	0x3e4ccccd	0.2
43	0x3e34b4b5	0.1764706
44	0x3e189899	0.14901961
45	0x3e189899	0.14901961
46	0x3e20a0a1	0.15686275
47	0x3e28a8a9	0.16470589
48	0x3e50d0d1	0.20392157
49	0x3e9a9a9b	0.3019608
50	0x3ed8d8d9	0.42352942
51	0x3f078788	0.5294118
52	0x3f159596	0.58431375
53	0x3f129293	0.57254905
54	0x3f1e9e9f	0.61960787
55	0x3f3bbbbc	0.73333335
56	0x3f57d7d8	0.84313726
57	0x3f56d6d7	0.8392157
58	0x3f5dddde	0.8666667
59	0x3f5dddde	0.8666667
60	0x3f51d1d2	0.81960785
61	0x3f49c9ca	0.7882353
62	0x3f3ababb	0.7294118
63	0x3f24a4a5	0.6431373
64	0x3f0e8e8f	0.5568628
65	0x3ef4f4f5	0.47843137
66	0x3f038384	0.5137255
67	0x3eeeeeef	0.46666667
68	0x3ed6d6d7	0.41960785
69	0x3efafafb	0.49019608
70	0x3f0a8a8b	0.5411765
71	0x3f0c8c8d	0.54901963
72	0x3f058586	0.52156866
73	0x3edcdcdd	0.43137255
74	0x3eb8b8b9	0.36078432
75	0x3eb2b2b3	0.34901962
76	0x3eb8b8b9	0.36078432
77	0x3eaeaeaf	0.34117648
78	0x3ea6a6a7	0.3254902
79	0x3ea8a8a9	0.32941177
80	0x3ea0a0a1	0.3137255
81	0x3ebababb	0.3647059
82	0x3ed2d2d3	0.4117647
83	0x3ed8d8d9	0.42352942
84	0x3ee2e2e3	0.44313726
85	0x3eeeeeef	0.46666667
86	0x3edcdcdd	0.43137255
87	0x3ebcbcbd	0.36862746
88	0x3e9a9a9b	0.3019608
89	0x3e828283	0.25490198
90	0x3e6ceced	0.23137255
91	0x3e868687	0.2627451
92	0x3ea6a6a7	0.3254902
93	0x3ec6c6c7	0.3882353
94	0x3edcdcdd	0.43137255
95	0x3eeaeaeb	0.45882353
96	0x3efafafb	0.49019608
97	0x3ef6f6f7	0.48235294
98	0x3efcfcfd	0.49411765
99	0x3f088889	0.53333336
100	0x3f119192	0.5686275
101	0x3f19999a	0.6
102	0x3f20a0a1	0.627451
103	0x3f28a8a9	0.65882355
104	0x3f38b8b9	0.72156864
105	0x3f4ececf	0.80784315
106	0x3f61e1e2	0.88235295
107	0x3f66e6e7	0.9019608
108	0x3f66e6e7	0.9019608
109	0x3f6aeaeb	0.91764706
110	0x3f6bebec	0.92156863
111	0x3f69e9ea	0.9137255
112	0x3f72f2f3	0.9490196
113	0x3f71f1f2	0.94509804
114	0x3f71f1f2	0.94509804
115	0x3f73f3f4	0.9529412
116	0x3f76f6f7	0.9647059
117	0x3f77f7f8	0.96862745
118	0x3f79f9fa	0.9764706
119	0x3f79f9fa	0.9764706
120	0x3f7bfbfc	0.9843137
121	0x3f73f3f4	0.9529412
122	0x3f79f9fa	0.9764706
123	0x3f79f9fa	0.9764706
124	0x3f74f4f5	0.95686275
125	0x3f78f8f9	0.972549
126	0x3f76f6f7	0.9647059
127	0x3f77f7f8	0.96862745
128	0x3f39b9ba	0.7254902
129	0x3ec2c2c3	0.38039216
130	0x3ec0c0c1	0.3764706
131	0x3ebababb	0.3647059
132	0x3e8c8c8d	0.27450982
133	0x3e3cbcbd	0.18431373
134	0x3e40c0c1	0.1882353
135	0x3df0f0f1	0.11764706
136	0x3e0c8c8d	0.13725491
137	0x3e149495	0.14509805
138	0x3e3cbcbd	0.18431373
139	0x3e44c4c5	0.19215687
140	0x3e2cacad	0.16862746
141	0x3e28a8a9	0.16470589
142	0x3e2cacad	0.16862746
143	0x3e008081	0.1254902
144	0x3e2cacad	0.16862746
145	0x3e44c4c5	0.19215687
146	0x3e5cdcdd	0.21568628
147	0x3e949495	0.2901961
148	0x3ed6d6d7	0.41960785
149	0x3ef0f0f1	0.47058824
150	0x3eeaeaeb	0.45882353
151	0x3eeaeaeb	0.45882353
152	0x3ed8d8d9	0.42352942
153	0x3ec4c4c5	0.38431373
154	0x3ec8c8c9	0.39215687
155	0x3ec6c6c7	0.3882353
156	0x3ea2a2a3	0.31764707
157	0x3e888889	0.26666668
158	0x3e808081	0.2509804
159	0x3e70f0f1	0.23529412
160	0x3e74f4f5	0.23921569
161	0x3e888889	0.26666668
162	0x3e929293	0.28627452
163	0x3e949495	0.2901961
164	0x3e8c8c8d	0.27450982
165	0x3e78f8f9	0.24313726
166	0x3e5cdcdd	0.21568628
167	0x3e44c4c5	0.19215687
168	0x3e30b0b1	0.17254902
169	0x3e4ccccd	0.2
170	0x3e58d8d9	0.21176471
171	0x3e48c8c9	0.19607843
172	0x3e38b8b9	0.18039216
173	0x3e38b8b9	0.18039216
174	0x3e3cbcbd	0.18431373
175	0x3e38b8b9	0.18039216
176	0x3e78f8f9	0.24313726
177	0x3ea8a8a9	0.32941177
178	0x3ee8e8e9	0.45490196
179	0x3f0e8e8f	0.5568628
180	0x3f0c8c8d	0.54901963
181	0x3ef8f8f9	0.4862745
182	0x3f088889	0.53333336
183	0x3f2aaaab	0.6666667
184	0x3f4dcdce	0.8039216
185	0x3f50d0d1	0.8156863
186	0x3f59d9da	0.8509804
187	0x3f5adadb	0.85490197
188	0x3f53d3d4	0.827451
189	0x3f4ececf	0.80784315
190	0x3f3ebebf	0.74509805
191	0x3f23a3a4	0.6392157
192	0x3ecececf	0.40392157
193	0x3ec6c6c7	0.3882353
194	0x3f078788	0.5294118
195	0x3f0f8f90	0.56078434
196	0x3efefeff	0.49803922
197	0x3f028283	0.50980395
198	0x3f078788	0.5294118
199	0x3f0c8c8d	0.54901963
200	0x3f0e8e8f	0.5568628
201	0x3f038384	0.5137255
202	0x3eeeeeef	0.46666667
203	0x3ed4d4d5	0.41568628
204	0x3ebababb	0.3647059
205	0x3ea8a8a9	0.32941177
206	0x3ea2a2a3	0.31764707
207	0x3ea8a8a9	0.32941177
208	0x3ec4c4c5	0.38431373
209	0x3ecccccd	0.4
210	0x3ecccccd	0.4
211	0x3ebebebf	0.37254903
212	0x3ebcbcbd	0.36862746
213	0x3ec4c4c5	0.38431373
214	0x3eb6b6b7	0.35686275
215	0x3e9c9c9d	0.30588236
216	0x3e60e0e1	0.21960784
217	0x3e64e4e5	0.22352941
218	0x3e7cfcfd	0.24705882
219	0x3e969697	0.29411766
220	0x3ea4a4a5	0.32156864
221	0x3e9a9a9b	0.3019608
222	0x3e848485	0.25882354
223	0x3e6ceced	0.23137255
224	0x3e909091	0.28235295
225	0x3e888889	0.26666668
226	0x3e808081	0.2509804
227	0x3e6ceced	0.23137255
228	0x3e48c8c9	0.19607843
229	0x3e30b0b1	0.17254902
230	0x3e34b4b5	0.1764706
231	0x3e50d0d1	0.20392157
232	0x3eb2b2b3	0.34901962
233	0x3ee4e4e5	0.44705883
234	0x3f0e8e8f	0.5568628
235	0x3f1f9fa0	0.62352943
236	0x3f26a6a7	0.6509804
237	0x3f20a0a1	0.627451
238	0x3f0a8a8b	0.5411765
239	0x3ee8e8e9	0.45490196
240	0x3e7cfcfd	0.24705882
241	0x3e54d4d5	0.20784314
242	0x3e50d0d1	0.20392157
243	0x3e74f4f5	0.23921569
244	0x3ea0a0a1	0.3137255
245	0x3ec2c2c3	0.38039216
246	0x3ed4d4d5	0.41568628
247	0x3edadadb	0.42745098
248	0x3ef6f6f7	0.48235294
249	0x3f008081	0.5019608
250	0x3f1c9c9d	0.6117647
251	0x3f21a1a2	0.6313726
252	0x3f1d9d9e	0.6156863
253	0x3f25a5a6	0.64705884
254	0x3f20a0a1	0.627451
255	0x3f1e9e9f	0.61960787

captions i4 [21]
0	0x00000074	116
1	0x00000068	104
2	0x00000061	97
3	0x00000074	116
4	0x0000007c	124
5	0x00000074	116
6	0x00000068	104
7	0x00000065	101
8	0x00000020	32
9	0x00000077	119
10	0x0000006f	111
11	0x0000006f	111
12	0x00000064	100
13	0x00000073	115
14	0x0000007c	124
15	0x00000061	97
16	0x00000020	32
17	0x00000062	98
18	0x00000065	101
19	0x00000061	97
20	0x00000072	114

detection_labels i4 [74]
0	0x00000074	116
1	0x00000068	104
2	0x00000065	101
3	0x00000020	32
4	0x00000077	119
5	0x0000006f	111
6	0x0000006f	111
7	0x00000064	100
8	0x00000073	115
9	0x0000007c	124
10	0x00000074	116
11	0x00000068	104
12	0x00000065	101
13	0x00000020	32
14	0x00000077	119
15	0x0000006f	111
16	0x0000006f	111
17	0x00000064	100
18	0x00000073	115
19	0x0000007c	124
20	0x00000074	116
21	0x00000068	104
22	0x00000065	101
23	0x00000020	32
24	0x00000077	119
25	0x0000006f	111
26	0x0000006f	111
27	0x00000064	100
28	0x00000073	115
29	0x0000007c	124
30	0x00000061	97
31	0x00000020	32
32	0x00000062	98
33	0x00000065	101
34	0x00000061	97
35	0x00000072	114
36	0x0000007c	124
37	0x00000061	97
38	0x00000020	32
39	0x00000062	98
40	0x00000065	101
41	0x00000061	97
42	0x00000072	114
43	0x0000007c	124
44	0x00000061	97
45	0x00000020	32
46	0x00000062	98
47	0x00000065	101
48	0x00000061	97
49	0x00000072	114
50	0x0000007c	124
51	0x00000061	97
52	0x00000020	32
53	0x00000062	98
54	0x00000065	101
55	0x00000061	97
56	0x00000072	114
57	0x0000007c	124
58	0x00000061	97
59	0x00000020	32
60	0x00000062	98
61	0x00000065	101
62	0x00000061	97
63	0x00000072	114
64	0x0000007c	124
65	0x00000074	116
66	0x00000068	104
67	0x00000065	101
68	0x00000020	32
69	0x00000077	119
70	0x0000006f	111
71	0x0000006f	111
72	0x00000064	100
73	0x00000073	115
